qlearning_agent_policy_20250605_112624.pth (torch, 6014 bytes, 6 tensors)

0.weight f4 [24, 4]
000000 62 4c 0e 3d 2b c0 61 be 1c a5 75 be e3 4e b9 bd
       0.034740813 -0.22045963 -0.23988765 -0.090482496
000010 da f8 e7 3f b5 c4 f0 3f a4 09 c8 bf f0 58 de bf
       1.8122818 1.881003 -1.5627942 -1.7370892
000020 9d 7a b2 3f d4 40 80 3f b8 1b b7 bf 99 af 87 bf
       1.3943669 1.0019784 -1.4305334 -1.0600463
000030 a9 26 02 40 07 29 a7 3f 1e e4 bd bf c4 8d b3 bf
       2.0336096 1.3059396 -1.4835241 -1.4027638
000040 7a b6 5d bf 69 23 34 bf b9 d9 12 bf 06 3e e8 3e
       -0.8660656 -0.7036653 -0.5736347 0.4535982
000050 3e fc 01 40 f5 ea 9c 3f 59 34 ca bf a7 e3 ce bf
       2.0310206 1.2259203 -1.5797225 -1.6163224
000060 f9 de 18 3f f8 0d 79 3f e2 7d ac bf 82 03 19 bf
       0.5971523 0.9728694 -1.3475916 -0.5977098
000070 e4 3d 93 3e 55 79 87 3e 20 76 8a be 28 8c 6d 3e
       0.28758156 0.26459756 -0.27043247 0.23197997
000080 77 e7 b4 3f cb 15 ea 3f ab ef a4 bf c7 92 ea bf
       1.4133137 1.8287901 -1.2885641 -1.8326043
000090 a1 b1 e0 3f 8d a1 b0 3f cb 68 93 bf 40 2e b6 bf
       1.7554208 1.3799301 -1.1516355 -1.4232864
0000a0 5e 88 e6 3f fc 1c 82 3f a0 e3 b5 bf 2c f6 95 bf
       1.8010366 1.0165095 -1.4210091 -1.1715751
0000b0 54 32 d2 3f 00 3c 8c 3f c7 0e e1 bf 04 2e ed bf
       1.6421609 1.095581 -1.7582635 -1.8529668
0000c0 30 0c 92 3f 0a 68 ac 3f 39 55 85 bf 18 af 70 bf
       1.1409969 1.346925 -1.0416633 -0.9401717
0000d0 4b 72 e3 3f dc 8f bf 3f ca 61 a4 bf bb 3d bf bf
       1.7769254 1.4965777 -1.2842343 -1.4940714
0000e0 a3 9c ad bf 3f e3 00 3e d7 69 95 bc a9 18 12 3f
       -1.3563427 0.12586688 -0.018238945 0.5706888
0000f0 4b 84 f8 be 98 9e be be 64 1c dc 3d d3 db 8e be
       -0.48538432 -0.37230372 0.107476026 -0.27902088
000100 76 38 99 3f 9e d8 c4 3f cc 3a cf bf 9c c4 da bf
       1.1970356 1.5378606 -1.6189818 -1.709125
000110 39 a1 df 3f 74 c9 d4 3f 4c 86 b4 bf 4a d0 d9 bf
       1.7471076 1.6623979 -1.4103484 -1.701669
000120 d1 77 ae 3f 4e 31 f4 3f 4d 15 00 c0 19 4b b4 bf
       1.3630315 1.9077547 -2.0013 -1.4085418
000130 3f fa 25 3f aa b3 39 3f 33 b6 5e bf c2 38 8b bf
       0.6483497 0.7253977 -0.86996764 -1.0876696
000140 f7 91 f7 3f 58 b3 a3 3f 7a 9b fd bf 33 52 d7 bf
       1.934142 1.2789106 -1.9813073 -1.682196
000150 f4 ba 9f 3f fd 01 d3 3f e8 8c 03 c0 de c5 ac bf
       1.2478929 1.6484982 -2.0554752 -1.3497884
000160 f1 cc b6 3f 73 90 b1 3f f8 f4 a3 bf 04 2b 83 bf
       1.4281293 1.3872207 -1.2809134 -1.0247502
000170 de 61 d4 3f 46 90 e5 3f c5 19 f7 bf 93 72 ae bf
       1.6592367 1.7934654 -1.9304739 -1.3628715

0.bias f4 [24]
000000 35 f9 be be 25 55 72 3f 82 84 d5 3f cf 8a d8 3f
       -0.37299505 0.9466117 1.6681063 1.6917361
000010 49 f6 a4 3f c0 88 e0 3f 5c 4b b2 3f 76 fd 48 be
       1.288766 1.7541733 1.3929248 -0.19627938
000020 f5 5f 9a 3f 9d 76 9e 3f 25 e5 e8 3f 1f 11 9d 3f
       1.2060534 1.2379948 1.8194929 1.227085
000030 74 ca d0 3f 40 b3 a6 3f e9 d5 9b 3f a2 27 c3 be
       1.6311784 1.3023453 1.2174655 -0.38116175
000040 37 e0 76 3f ea cf b1 3f 48 73 71 3f a3 df b6 3f
       0.96435875 1.3891575 0.9431653 1.4286999
000050 a2 fa a3 3f c8 2a 9d 3f a2 62 de 3f c8 d5 9c 3f
       1.2810862 1.2278681 1.737385 1.2252741

2.weight f4 [24, 24]
000000 89 75 49 be ce 08 ae 3f 7f 66 d3 3f 84 b4 9d 3f
       -0.19673742 1.3596437 1.6515654 1.2320714
000010 22 d4 c9 3f 51 83 b3 3f 7a 0b d2 3f 08 8d 35 3e
       1.5767863 1.402445 1.6409752 0.1772958
000020 01 2c a7 3f a6 6f c8 3f 21 2f bd 3f 9f cb bc 3f
       1.3060304 1.5659072 1.4780008 1.474964
000030 a5 a4 d7 3f df 6e a9 3f 5e 94 eb 3f 6d ea b4 3d
       1.684712 1.323696 1.8404653 0.08833776
000040 62 86 b4 3f ff ad a6 3f c1 9f b5 3f db 04 e3 3f
       1.410351 1.3021849 1.4189378 1.7735857
000050 dc ab bf 3f da 05 a3 3f 13 53 d2 3f 81 2b ad 3f
       1.4974322 1.2736161 1.6431602 1.3528901
000060 6a 7c 16 be 55 d4 f3 bd 27 44 14 bd a4 43 0e be
       -0.14695898 -0.119057335 -0.036197808 -0.1389299
000070 a4 c2 52 bd ab a3 30 be 10 45 25 bd ee a1 76 bd
       -0.051455155 -0.17249934 -0.040349066 -0.060213022
000080 f9 41 c7 3c 50 06 14 be 98 4d dd bc 66 a7 4c 3e
       0.02432345 -0.14455533 -0.027014539 0.19985732
000090 84 11 36 be f1 38 3e be 91 75 b9 3c 5c 6e a0 bc
       -0.17780119 -0.18576409 0.022639068 -0.019583873
0000a0 fd bc 92 bd a5 32 f6 3d d8 51 20 3e c1 30 80 3c
       -0.07164953 0.120213784 0.15656221 0.015648248
0000b0 d8 8d 19 be e6 97 4d 3e 5a bb 13 3c 8d dd 64 bc
       -0.14995515 0.20077476 0.009016836 -0.013968837
0000c0 f4 06 0e 3e 8f 2d ab 3f 46 eb ba 3f 40 70 db 3f
       0.1386984 1.3373278 1.460305 1.7143631
0000d0 e1 fa d3 3f 89 03 c5 3f 78 27 f3 3f 44 48 c0 3b
       1.6560937 1.5391704 1.899642 0.0058679897
0000e0 9f d3 a8 3f d2 11 c3 3f d9 9e d8 3f d8 1a cf 3f
       1.3189582 1.5239813 1.6923476 1.6180067
0000f0 93 2a c1 3f ff 73 da 3f bf 6f f1 3f be 69 d9 3d
       1.5091118 1.7066649 1.8862227 0.10615872
000100 f2 2f b8 3f a0 25 a8 3f db 2c b0 3f 00 62 e2 3f
       1.4389632 1.3136482 1.3763689 1.7686157
000110 bf aa b2 3f 9e 1a c6 3f 3e 47 d0 3f c0 43 bc 3f
       1.3958358 1.5476873 1.6271741 1.4708176
000120 9e e8 44 3e 86 61 41 be 28 62 29 be 5f 3f 58 be
       0.19229361 -0.18884858 -0.1654135 -0.21117924
000130 9c 79 7b 3e 18 c0 0f bd 7d ab d7 be ce cc 48 3e
       0.24558109 -0.035095304 -0.42123023 0.19609377
000140 0d 6d 4b 3e 44 be fe bd 08 96 5a be e5 92 ce 3c
       0.19865818 -0.12438634 -0.21346295 0.02521653
000150 6c 3e 49 be dc d2 45 be 02 6f 48 3c e8 13 aa 3d
       -0.19652718 -0.19318718 0.012233498 0.08304578
000160 6a 60 11 3e 3b 09 70 bc f4 83 42 3d e0 5e 8a be
       0.14196935 -0.014650638 0.04748912 -0.2702551
000170 fa 32 1b bd 8d 62 d8 bc 6b 67 a9 be 77 f8 24 be
       -0.037890412 -0.02641418 -0.33086714 -0.16110407
000180 ae 16 e1 3d 20 41 ad 3f 81 aa da 3f 55 93 b6 3f
       0.10990654 1.35355 1.7083284 1.4263712
000190 b9 f6 e8 3f 42 35 94 3f 1a 0b f7 3f 72 1f 33 bd
       1.8200294 1.1578753 1.9300263 -0.04373116
0001a0 97 87 a2 3f 5e 8e b5 3f 12 80 c2 3f 52 1c a3 3f
       1.2697629 1.4184072 1.5195334 1.2743018
0001b0 1a 10 ca 3f 50 5f ac 3f b1 0d eb 3f 4d 74 98 3d
       1.5786164 1.3466587 1.8363553 0.074440576
0001c0 36 90 b1 3f 09 53 b6 3f cc 44 c0 3f de 61 c8 3f
       1.3872135 1.424409 1.5020995 1.5654867
0001d0 3a c0 8e 3f 67 23 8e 3f 7c 31 b7 3f 33 58 ac 3f
       1.1152413 1.1104554 1.4311976 1.3464416
0001e0 9f f9 a2 bc 8a 6d bf 3f e0 d3 bf 3f 17 cb b3 3f
       -0.01989442 1.4955304 1.4986534 1.4046353
0001f0 c6 50 f0 3f c7 d9 c0 3f 80 b4 d2 3f c0 b0 5a 3d
       1.877465 1.506646 1.6461334 0.05339122
000200 de af aa 3f 56 2e c9 3f 39 d3 d7 3f 8e ba c6 3f
       1.333492 1.5717266 1.6861335 1.5525682
000210 f1 95 d0 3f 3d de c5 3f a2 e5 f3 3f d9 a2 9c 3d
       1.6295758 1.5458447 1.9054453 0.07648248
000220 99 b3 c8 3f ce c0 d2 3f e5 08 c4 3f 09 1c d5 3f
       1.5679809 1.6465089 1.5315214 1.6649181
000230 dd e8 c5 3f fc 24 be 3f 0c 5a ca 3f fd c6 bb 3f
       1.5461689 1.4855037 1.580873 1.4670101
000240 b0 4c 4a 3d 23 8d bd 3f 88 9d b7 3f b1 81 b9 3f
       0.04938954 1.4808697 1.434495 1.4492704
000250 88 3a d7 3f 1a 46 cd 3f 2a 7f de 3f 77 57 2c be
       1.6814737 1.6037018 1.7382557 -0.1683024
000260 20 d9 be 3f bd 8c d7 3f 6c 92 ac 3f 79 9d ca 3f
       1.4910011 1.6839825 1.3482184 1.5829307
000270 cc 8d d0 3f c3 aa de 3f 01 d0 e1 3f 9d 70 3f bd
       1.6293273 1.7395862 1.7641603 -0.046738256
000280 50 d9 b7 3f 69 e3 d0 3f 5c 23 d1 3f ae 9e db 3f
       1.4363194 1.63194 1.6338916 1.71578
000290 e7 95 ae 3f 75 b0 de 3f 6e ba c8 3f a2 73 d5 3f
       1.3639497 1.73976 1.5681894 1.6675913
0002a0 5e 28 27 3d 53 d1 c1 3f 08 bc bd 3f 20 c8 ba 3f
       0.04080998 1.5142006 1.4823008 1.4592323
0002b0 f4 e7 ec 3f 1a ba c7 3f 88 34 bf 3f b0 9e 26 be
       1.8508286 1.5603669 1.4937906 -0.16271472
0002c0 77 16 c9 3f d2 85 b0 3f aa e0 a3 3f 4c 9b b3 3f
       1.5709981 1.3790839 1.2802937 1.4031768
0002d0 08 85 bb 3f 57 0e bb 3f aa d6 cd 3f 40 cb d3 bd
       1.4649973 1.4613751 1.6081135 -0.10341501
0002e0 eb 10 af 3f 1c 3d bb 3f 11 0c c7 3f b4 11 e2 3f
       1.3677038 1.4628024 1.5550557 1.7661653
0002f0 88 1a be 3f ab dd c5 3f 69 73 a8 3f d1 63 d3 3f
       1.4851847 1.5458273 1.316022 1.6514837
000300 f9 f1 c9 bd 78 19 2d be 6d 43 85 3c f3 c8 68 be
       -0.09860606 -0.16904247 0.016267503 -0.22732906
000310 1a c9 ae bd cf 12 da bd ae a0 28 3e bb 69 22 3e
       -0.08534451 -0.10648119 0.16467544 0.15860645
000320 c6 15 6d 3d fe 3b 4b 3d d1 32 a0 3d 0f 6d ed 3d
       0.057882093 0.04961776 0.078221925 0.11593067
000330 0c 70 a1 3d 5c 00 6f bc 0d 5a 17 be 92 49 cf bd
       0.07882699 -0.014587488 -0.14780445 -0.10121454
000340 5b b4 7e 3d 6a 27 bd bd 28 1b 02 3d f3 49 af bd
       0.06218372 -0.09236033 0.03176418 -0.085590266
000350 e2 56 a8 3d 27 41 d5 bd a2 0a 09 3e b6 30 03 3d
       0.082196966 -0.104128174 0.13382962 0.032028876
000360 70 64 59 3d 9a 04 dc 3f 3d 51 c8 3f 21 95 cb 3f
       0.0530743 1.7188904 1.5649792 1.5904886
000370 c6 36 f7 3f 21 47 c5 3f 38 51 e5 3f cb 27 40 be
       1.931359 1.5412332 1.7915411 -0.1876518
000380 ea 48 b0 3f d9 e0 df 3f 12 0d cc 3f e9 b0 d1 3f
       1.3772252 1.7490493 1.5941489 1.6382114
000390 b4 88 e0 3f df ea df 3f c4 22 df 3f da 4d e8 bc
       1.7541718 1.7493552 1.7432485 -0.028357435
0003a0 aa 77 d4 3f 1c 88 db 3f 83 31 da 3f 0e 9d c6 3f
       1.6599019 1.7150912 1.704636 1.5516679
0003b0 18 fa b1 3f 26 6a cf 3f d5 c6 c6 3f 28 48 da 3f
       1.3904448 1.6204269 1.5529429 1.705327
0003c0 5c 13 8a bd 70 7c c9 3f c0 86 c3 3f 35 e0 a8 3f
       -0.06741974 1.57411 1.5275497 1.3193423
0003d0 4d d2 ea 3f 99 2a a5 3f 7f 2e e5 3f a1 e1 44 be
       1.8345429 1.2903625 1.7904814 -0.19226696
0003e0 26 3d c4 3f fb b3 ac 3f 0b 70 b3 3f 1d d3 c7 3f
       1.5331161 1.3492426 1.4018568 1.5611302
0003f0 f7 e8 d4 3f e6 20 aa 3f 05 b1 01 40 a2 6a c6 3d
       1.6633595 1.329129 2.0264294 0.09688307

2.bias f4 [24]
000000 1f c7 96 3f 1b 07 35 3c 60 b5 c4 3f e3 1d 48 be
       1.1779517 0.011049057 1.5367851 -0.19542651
000010 35 74 bb 3f 64 7c cd 3f 97 e0 b1 3f 64 75 a0 3f
       1.4644839 1.6053586 1.3896664 1.2535825
000020 07 5e 5d be 6b 1d cc 3f 20 2e ba 3f d9 1a b5 3f
       -0.216179 1.5946478 1.4545326 1.4148818
000030 2c 17 cc 3f 38 b2 d0 3f 20 8e bc 3f 80 69 aa 3f
       1.5944571 1.6304388 1.4730873 1.3313446
000040 2e 4c b0 3f 4e 2b cc 3f 7d 8e cb 3f e0 8c 41 be
       1.3773248 1.5950716 1.5902859 -0.18901396
000050 f0 a1 bb 3f dd d2 96 bc cf 43 bc 3f 0d 95 9f 3f
       1.4658794 -0.018411094 1.4708194 1.2467362

4.weight f4 [2, 24]
000000 49 45 ab 3f 29 f2 1a be 1d 72 a6 3f b1 2e c1 3e
       1.3380519 -0.1513144 1.3003575 0.37730935
000010 ea 21 ad 3f 4e ed 78 3f 3f 7d a5 3f 40 6f 90 3f
       1.3525975 0.972371 1.2928847 1.1283951
000020 eb ea 36 be d2 b1 9f 3f 8b ed 8e 3f 93 b8 8a 3f
       -0.17863052 1.2476141 1.1166242 1.0837578
000030 c6 e9 6a 3f b3 00 ac 3f b6 bc 8d 3f 30 ee a0 3f
       0.9176296 1.3437713 1.1073215 1.2572689
000040 71 f7 95 3f 93 a3 8a 3f d4 c6 7f 3f 18 fe 15 be
       1.1716138 1.0831169 0.9991276 -0.1464771
000050 5c 77 60 3f 66 da 8e 3d d6 d4 8e 3f e3 a0 8b 3f
       0.8768213 0.0697525 1.1158702 1.0908474
000060 0b e1 c7 3f 7a c2 77 be a7 88 9e 3f fd c0 0a be
       1.5615553 -0.2419528 1.2385453 -0.13550182
000070 dd 06 a8 3f 3b 16 aa 3f d5 d2 9f 3f 49 85 c0 3f
       1.3127095 1.3288034 1.2486216 1.5040675
000080 73 ea 55 3d 74 d2 97 3f 7e fb b7 3f 8a d8 b0 3f
       0.05222554 1.18611 1.4373624 1.3816082
000090 15 f3 b3 3f e7 30 9e 3f 44 35 b0 3f 83 a6 a0 3f
       1.4058558 1.2358674 1.3766255 1.2550815
0000a0 b0 4c a8 3f 9f 02 aa 3f 91 b6 ae 3f cc 58 1b bd
       1.3148403 1.328205 1.3649465 -0.03792648
0000b0 30 2f ba 3f f4 2d cc bd 63 cd a5 3f 25 0b be 3f
       1.454565 -0.09969702 1.2953304 1.4847151

4.bias f4 [2]
000000 66 0b ed be a9 aa a9 3f
       -0.4629776 1.3255206
