qlearning_agent_policy_20250605_115232.pth (torch, 6014 bytes, 6 tensors)

0.weight f4 [24, 4]
000000 aa 2b 5c bf e4 d3 19 bf ac 3f 55 bf 29 93 80 be
       -0.86004126 -0.60088944 -0.8330028 -0.25112274
000010 d0 78 28 bf cb 00 45 bf 16 0c 50 bf 5b fa 04 bf
       -0.65809345 -0.76954335 -0.8126844 -0.5194451
000020 f2 0e 42 bf f5 26 b3 3f c0 cc b9 40 c7 16 e6 3f
       -0.75804055 1.3996264 5.806244 1.7975701
000030 38 94 86 be 09 f8 cb 3f 85 0a b3 40 be 36 e0 3f
       -0.26284957 1.5935069 5.595034 1.7516706
000040 b9 e4 a4 bf 5e 9e 74 bf ac 89 3e be 4b d7 97 be
       -1.2882301 -0.9555415 -0.18607205 -0.29656443
000050 15 05 fd be c7 71 87 bf df 9b 83 bf 09 5c 95 be
       -0.4941794 -1.0581597 -1.0281943 -0.2917178
000060 7a 23 64 c0 63 48 da bf ca a1 45 be 98 74 a9 be
       -3.5646653 -1.7053341 -0.19299999 -0.33096766
000070 e6 1b 50 bf 96 47 a2 bf 44 f5 5f bf 66 fd ec be
       -0.8129257 -1.2678096 -0.8748362 -0.46287078
000080 3f f7 5d bf c6 3e 39 bf 14 c9 f3 be 6a cc cf be
       -0.8670539 -0.7236141 -0.47614348 -0.40585643
000090 d3 59 e7 3f ad bc 96 3f 2c 3f 32 bf 6a 2f e3 3e
       1.8074287 1.1776329 -0.6962764 0.44372112
0000a0 66 99 4f bf 14 fc 46 bf 88 74 40 bf e8 fc 04 bf
       -0.8109344 -0.7772839 -0.7517781 -0.51948404
0000b0 f6 45 06 c0 f7 b9 1e bf 4d 1e 0e 40 5a 85 f3 3e
       -2.09802 -0.6200251 2.2205994 0.47562677
0000c0 1f 87 9e bf 00 0f 95 bf 46 7b 47 bf 44 15 3d be
       -1.2384986 -1.1645203 -0.77922475 -0.18465143
0000d0 bf 98 63 bd a1 81 c7 3d a9 6e 9c 3e 95 07 93 3d
       -0.055565592 0.097415216 0.30553177 0.071791805
0000e0 6a 41 f1 3f 31 65 30 3c 64 12 55 c0 9a 67 3b bf
       1.8848088 0.010766313 -3.3292475 -0.7320496
0000f0 7a a3 97 bf 55 66 35 bf 12 a4 e0 be f7 a8 27 bf
       -1.1846764 -0.7085927 -0.43875176 -0.65492195
000100 d1 1e db bf fa b5 81 bf 5c 05 6e bf 57 83 19 bf
       -1.711878 -1.013366 -0.9297693 -0.59966034
000110 c8 e9 bd bf b2 8d 82 bf a4 94 d3 3e 1d 84 f3 be
       -1.4836969 -1.0199492 0.4132434 -0.47561732
000120 ea 68 38 bf b7 9f 8f bf be 49 84 bf e9 76 1b bf
       -0.72035086 -1.1220616 -1.0335004 -0.6072832
000130 0d 43 c5 3f 84 1d 9a 3f 8c c4 a2 3f a9 db a9 3f
       1.5411087 1.2040257 1.2716231 1.327016
000140 4d b0 10 bf 17 0a 7d bf 33 dd 83 bf a9 c8 4c be
       -0.56519014 -0.9884352 -1.030188 -0.19998421
000150 5d 8b 5c bf 9d f3 3b bf 0f a2 02 bf 95 2b 8d be
       -0.8615015 -0.734186 -0.5102853 -0.27572313
000160 c4 9c 4b c0 e9 87 96 bf 8d e4 59 bf cc 05 3a bf
       -3.1814432 -1.1760226 -0.85114366 -0.72665095
000170 78 31 14 bf 6c e6 14 bf 89 9a b8 be 2a 10 8c 3c
       -0.57887983 -0.58164096 -0.360554 0.017097551

0.bias f4 [24]
000000 79 9e 2f 3f b1 fc 86 3f 44 c2 e5 3e fc 03 68 3e
       0.68601185 1.0545865 0.44874775 0.2265777
000010 33 48 73 3f a4 4f 28 3f fd 08 1f 3f b8 96 39 3f
       0.9503204 0.6574652 0.6212309 0.72495604
000020 53 72 02 3f 6b 7b 19 3e 0e f4 49 3f e4 c8 a2 be
       0.50955695 0.14988486 0.7888802 -0.31793892
000030 7b e1 24 3f ca 06 8a be d6 f2 0c bf 7a af 76 3f
       0.64406556 -0.26958305 -0.5505804 0.96361506
000040 88 6d 80 be 38 cd c1 3e 8b db 64 3f 70 39 22 be
       -0.25083566 0.37851882 0.89397496 -0.15842223
000050 39 d6 56 3f 9f 3a 17 3f 1e 9d 22 be a5 8a 8b 3f
       0.8392063 0.59073824 -0.15880248 1.0901686

2.weight f4 [24, 24]
000000 79 6b 3f 3f 8f 27 2a 3f fe 9b 50 c0 58 6f 65 c0
       0.74773365 0.6646661 -3.259521 -3.584921
000010 38 fb 44 3f 99 3e 1a 3f d3 3e ad 3e 27 40 1f 3f
       0.7694583 0.60251766 0.33836994 0.62207264
000020 fe 69 35 3f bc b9 8e bf 53 d6 30 3f ac 56 f0 bf
       0.70864856 -1.1150432 0.6907703 -1.877645
000030 d3 43 55 3f ea e2 40 bc 59 9f c4 bf 47 5a 12 3f
       0.83306617 -0.0117728505 -1.5361129 0.57169
000040 b1 c0 0b 3e 93 e4 4a 3f 31 6e 6a 3f 04 9a bd bf
       0.13647725 0.79255027 0.9157439 -1.4812627
000050 7a 3b 05 3f dd f2 1d 3f ba 6b c3 3e 55 07 bc 3e
       0.5204388 0.61698705 0.38168126 0.36724344
000060 dd 3a 16 3f 23 53 06 3f 77 10 3c c0 06 e2 4f c0
       0.5868357 0.52470607 -2.938505 -3.2481704
000070 8a 0e 0d 3f b6 46 f5 3e 86 50 bf 3e 68 ed 16 3f
       0.5510031 0.4790551 0.37366122 0.58956003
000080 5e d3 47 3f 42 aa ad bf e5 25 fd 3e 26 27 dc bf
       0.78056896 -1.3567584 0.49442974 -1.7199447
000090 87 e5 d1 3e 30 c6 3f bd f3 b0 00 c0 80 35 21 3f
       0.40995428 -0.046819866 -2.0108001 0.6297226
0000a0 e6 02 17 3c c8 d8 62 3f 67 5f 77 3f 73 49 80 bf
       0.009217 0.8861203 0.9662995 -1.0022415
0000b0 4f a2 15 3f 08 a0 17 3f 20 a9 57 3e 64 21 d5 3e
       0.5845079 0.59228563 0.2106061 0.41627038
0000c0 bb 5e 18 3f 25 e9 00 3f 36 db 31 c0 7b c3 52 c0
       0.5951955 0.5035575 -2.7790046 -3.2931812
0000d0 30 17 63 3f 07 2d 03 3f 83 16 47 3e af f7 59 3f
       0.88707256 0.5124058 0.19442181 0.8514356
0000e0 c5 fe 0c 3f 18 e5 80 bf dd 38 11 3f dc cd 01 c0
       0.5507625 -1.0069914 0.5672739 -2.0281897
0000f0 68 e6 67 3f 6c 7e b0 3c cf 7a ba bf 51 f3 12 3f
       0.9058595 0.021544658 -1.4568728 0.5740252
000100 60 a6 01 be ca 8b 47 3f b1 d7 89 3f 2d 78 c3 bf
       -0.12661123 0.77947676 1.0768949 -1.527105
000110 8f 1d 5c 3f 50 33 45 3f 4c a9 88 3e e7 c6 20 3f
       0.859826 0.7703142 0.26691663 0.628035
000120 12 78 60 3f fc ca 59 3f 5e 4e 0b c0 f5 1a 23 c0
       0.8768321 0.85075355 -2.1766582 -2.5485203
000130 84 74 92 3f 73 52 6f 3f ca e9 ce 3f 31 16 25 3f
       1.1441808 0.9348518 1.6165097 0.64486986
000140 dd da 44 3f 23 30 82 bf 16 b0 39 3f 7d 5d 6c bf
       0.7689646 -1.017094 0.7253431 -0.9233015
000150 b4 90 67 3f bf be 8d 3d 28 1c c2 bf 5c 66 62 3f
       0.90455174 0.069211476 -1.5164843 0.8843744
000160 91 18 86 3f 9e 85 a3 3f 11 c2 83 3f d8 33 eb bf
       1.0476247 1.2775152 1.0293599 -1.8375196
000170 c5 b2 4a 3f c4 eb 41 3f fa d7 a0 3f ea c1 72 3f
       0.7917903 0.75750375 1.2565911 0.9482714
000180 c9 52 47 3f 14 62 26 3f e9 3e 43 c0 78 e4 5c c0
       0.77860695 0.64993405 -3.0507147 -3.4514446
000190 92 d5 36 3f 8e d7 2c 3f 4e 56 bf 3e 6b 1e 63 3f
       0.7141963 0.6751641 0.37370533 0.8871829
0001a0 31 fe 60 3f fb 39 80 bf 39 a9 5c 3f e2 fb 01 c0
       0.87887865 -1.0017694 0.86195713 -2.0309987
0001b0 d2 4d 4e 3f 64 74 d7 bd 0b 7b c4 bf 80 e3 61 3f
       0.80587494 -0.105202466 -1.535005 0.8823776
0001c0 47 83 4d 3c 00 63 4c 3f b3 97 87 3f da fd da bf
       0.012543506 0.7983856 1.059317 -1.7108719
0001d0 1e 0e 3c 3f 22 16 00 3f 6e 32 87 3e 5a ea 0a 3f
       0.7345904 0.5003377 0.26405662 0.5426384
0001e0 56 2e a5 3d b2 99 1c 3e 44 03 15 be ef 19 5a bd
       0.080654785 0.15293005 -0.14552027 -0.05324739
0001f0 04 2d af 3c 71 cd 23 bd 10 27 36 be 2e 2b 07 be
       0.02138377 -0.039990846 -0.17788339 -0.13200065
000200 4f 99 04 be 69 a7 0a be 0c f8 26 3d 49 43 a4 3c
       -0.12949108 -0.13540424 0.0407639 0.020051615
000210 ad 54 51 3d 52 44 16 3d a9 41 1d be b4 df d0 bc
       0.051106144 0.03668625 -0.15357079 -0.025497295
000220 f4 da 0d be a3 6e e0 3d 2d d9 1f be 76 d3 33 bd
       -0.13853055 0.10958602 -0.1561019 -0.043902837
000230 15 d4 3f 3d 7d 11 ac 3c f6 da 51 bc 29 ec 82 bd
       0.046833117 0.021004433 -0.012808552 -0.063927
000240 31 90 1a 3f f2 cd 0a 3f b8 a4 19 c0 c9 ae 31 c0
       0.6037627 0.542205 -2.4006786 -2.776293
000250 6d 97 06 3f 0b 50 14 3f 2b 8a b3 3e fa b8 18 3f
       0.5257481 0.57934636 0.3506635 0.5965725
000260 e7 77 04 3f 5a 61 aa bf 0b be 04 3f 38 7c fc bf
       0.51745456 -1.3310959 0.5185248 -1.9725409
000270 59 18 02 3f fa fe 34 bd f2 8c 11 c0 c7 f4 bc 3e
       0.508184 -0.044188477 -2.2742276 0.369055
000280 6c fa 0d be 6c b0 31 3f dd 79 34 3f 06 bd d6 be
       -0.1386506 0.69409823 0.7049845 -0.41941088
000290 9e 93 05 3f e7 7a eb 3e 5a 34 f6 3d 88 11 19 3f
       0.5217837 0.45992205 0.12021704 0.59792376
0002a0 b9 d3 99 3f 70 32 20 3f 55 74 f3 bf d9 63 17 c0
       1.2017738 0.6257696 -1.9019877 -2.3654692
0002b0 a5 35 98 3f 62 b4 8c 3f f0 fe 8e 3f 04 dd 3f 3f
       1.1891371 1.0992548 1.1171551 0.7494662
0002c0 ef 13 a1 3f 95 d4 da bf 37 49 40 3f 1c f3 b2 be
       1.2584208 -1.7096125 0.75111717 -0.34951103
0002d0 9d 00 11 3f 89 6a 8d 3d 54 5c e0 bf 0b 51 08 3f
       0.5664156 0.069050856 -1.7528176 0.5324866
0002e0 50 c4 b3 3e 9d ee 8a 3f 95 86 55 3f 70 59 b5 bd
       0.35110712 1.0854069 0.8340848 -0.088549495
0002f0 29 1e 87 3f 0d fc 8f 3f 94 df 14 3f fa f3 8c 3f
       1.0556079 1.1248795 0.58153653 1.1011956
000300 cf 27 3a 3f 0c ac 42 3f 16 11 16 c0 39 c5 38 c0
       0.72716993 0.7604377 -2.3447928 -2.8870375
000310 85 ea 7c 3f f3 84 4c 3f 7e 61 4c 3f 9d 3a 33 3f
       0.9879535 0.79890364 0.7983626 0.7001131
000320 3d d9 75 3f 6a a2 ba bf e3 e1 14 3f 56 73 bd bf
       0.96034604 -1.4580815 0.58157176 -1.4800823
000330 c7 05 28 3f 26 07 c4 bd f5 dd de bf a9 14 43 3f
       0.65633816 -0.09571676 -1.7411486 0.762034
000340 04 05 29 bd a4 40 87 3f ec a7 90 3f 8d d8 9f bf
       -0.04126455 1.0566602 1.1301246 -1.2487961
000350 37 95 74 3f ac 9f 43 3f cb 7d cc 3e 0f b3 84 3f
       0.95540184 0.76415515 0.39939722 1.0367144
000360 f3 b8 3a 3f 9c ce 4e 3f 61 37 0a c0 49 4e 36 c0
       0.7293846 0.8078401 -2.15963 -2.8485281
000370 cb b4 42 3f 0d 05 51 3f 28 dc 88 3f 90 52 0a 3f
       0.7605712 0.8164833 1.0692186 0.5403223
000380 e5 dd 1b 3f f7 13 1a bf 5c 0a 5e 3f c9 17 b7 bf
       0.6088546 -0.60186714 0.8673456 -1.4304134
000390 2d 28 2a 3f a8 43 91 3d f9 1a cd bf f4 b8 40 3f
       0.66467553 0.070929825 -1.6023856 0.75282216
0003a0 8f ab 01 3f 2d 33 58 3f 03 f6 90 3f d4 24 f6 bf
       0.506524 0.8445309 1.1325077 -1.9229989
0003b0 a2 86 22 3f d5 74 5c 3f f1 7d 03 3f 68 22 59 3f
       0.63486683 0.8611577 0.51364046 0.84818125
0003c0 59 d7 12 3f 02 f8 0c 3f 9f e6 3b c0 01 91 5a c0
       0.57359844 0.5506593 -2.935951 -3.4151003
0003d0 4f 0a 48 3f 1a d1 31 3f 02 13 ba 3e f3 48 de 3e
       0.7814073 0.6945969 0.36342627 0.4341503
0003e0 93 4d 23 3f 98 9e b3 bf d6 a0 27 3f 0b e3 db bf
       0.63790244 -1.4032774 0.6547979 -1.7178663
0003f0 6a 12 f8 3e f7 bd 80 bd 9f ba 07 c0 b7 1b 0a 3f
       0.4845155 -0.06286233 -2.1207654 0.5394854

2.bias f4 [24]
000000 e8 e8 c7 3e eb c9 92 3e 66 f2 ea 3e 54 81 3e 3f
       0.3904488 0.28669676 0.4588806 0.7441609
000010 c0 0f 08 3f 35 9e 15 be b3 2b 95 3e 8e c6 1c 3f
       0.5314903 -0.14611132 0.29134902 0.6124047
000020 57 52 9a 3e f6 75 35 3f 29 c7 d8 3e 2a 41 ab 3e
       0.30140945 0.7088312 0.42339447 0.33448154
000030 6b 2b 6e 3f 4f 7f a7 bd 1f e3 f2 3e 23 5e ab 3e
       0.93035 -0.08178579 0.47438905 0.33470258
000040 42 51 25 3e b5 c8 9e 3e b7 7e 63 3e f6 bc 17 3f
       0.16144279 0.31012502 0.22216307 0.59272707
000050 cd db a4 3f 14 91 a9 bd 05 e4 cc 3f f7 fa 41 3f
       1.2879578 -0.082796246 1.6007086 0.75773567

4.weight f4 [2, 24]
000000 dd 09 51 40 61 7e 3f 40 9b 36 36 40 ed a3 23 40
       3.266227 2.9920886 2.8470829 2.5568802
000010 21 0c 38 40 a8 2b 27 3e c7 e3 41 40 c1 e5 f9 3f
       2.8757403 0.16325247 3.0295274 1.952324
000020 d1 77 20 40 7d 43 29 40 79 18 40 40 13 34 d3 3f
       2.507313 2.6447442 3.0014937 1.6500267
000030 1a 52 c7 3e 2a 94 c5 bb 39 1d c1 3f f3 2d 24 40
       0.38929826 -0.0060296254 1.5087043 2.5653045
000040 87 6e 69 c0 f9 28 3a 40 0a 2a 97 3c c0 25 2c 40
       -3.647371 2.9087508 0.018452663 2.689804
000050 09 b9 ee 3f dc ef e7 bc 47 2d 0c 40 d2 69 1f 40
       1.8650218 -0.028312616 2.1902635 2.4908338
000060 fa 99 14 40 a2 63 1e 40 4d ff 18 40 96 66 32 40
       2.321898 2.474831 2.3905823 2.7875113
000070 30 1e 1d 40 5c 0e 25 be fb 8a 2e 40 85 23 3e 40
       2.4549675 -0.16118759 2.7272327 2.970918
000080 5e 54 33 40 88 d0 28 40 aa 80 1a 40 59 c6 0f 40
       2.8020244 2.6377277 2.414103 2.2464812
000090 a2 21 38 c0 4b df 5e bd 30 43 8d 3f 43 e0 32 40
       -2.8770528 -0.054412168 1.1036129 2.7949378
0000a0 5d a8 b8 3f 40 fb 2e 40 11 b2 1d c0 fb 73 1e 40
       1.442638 2.734085 -2.4639933 2.475829
0000b0 6a 21 35 3f 4a b2 2e be 30 79 19 40 31 c9 34 40
       0.7075411 -0.170602 2.3980217 2.8247797

4.bias f4 [2]
000000 45 f8 c1 3f 55 6a 0c 40
       1.5153891 2.19399
