qlearning_agent_policy_20250605_110116.pth (torch, 6014 bytes, 6 tensors)

0.weight f4 [24, 4]
000000 1d 1c 6d 40 a1 6d 27 40 f7 ce 48 c0 25 81 2d c0
       3.704841 2.6160662 -3.1376321 -2.7110074
000010 37 5b 3b 40 65 2d 40 40 88 c0 5a c0 e0 dd 3b c0
       2.9274423 3.0027707 -3.4180012 -2.9354172
000020 11 cd 52 40 d4 25 3e 40 7e 6f 5e c0 e6 97 23 c0
       3.2937663 2.9710588 -3.475555 -2.5561461
000030 35 e4 3c 40 e2 02 5a 40 2b 93 38 c0 fe da 31 c0
       2.9514287 3.406426 -2.8839824 -2.7789912
000040 9d e1 66 40 b7 bc 4b 40 0c 3b 49 c0 c2 51 3e c0
       3.6075203 3.1833932 -3.144229 -2.97374
000050 02 e9 65 40 14 35 3e 40 19 85 65 c0 f5 80 49 c0
       3.5923467 2.9719896 -3.5862486 -3.148496
000060 8d d8 5d 40 f2 cc 43 40 2f 1f 55 c0 a5 73 45 c0
       3.4663422 3.0593839 -3.3300283 -3.0851834
000070 40 33 77 3f 72 e8 40 3d d9 41 6b bf 89 98 d8 bc
       0.96562576 0.047096677 -0.9189735 -0.026439922
000080 0d 62 65 40 53 87 24 40 17 16 58 c0 8e 50 52 c0
       3.5841095 2.5707595 -3.3763483 -3.2861667
000090 69 18 1b 40 e1 a2 07 40 d1 2a 12 c0 70 d1 1c c0
       2.4233649 2.1193163 -2.2838633 -2.450283
0000a0 a9 c7 01 40 a2 e6 8c 3f b4 da a3 bf db f2 1d bf
       2.0278113 1.1007884 -1.2801118 -0.61698693
0000b0 ed 06 3c 40 dd 0b 57 40 65 1b 36 c0 17 d5 14 c0
       2.9379227 3.360099 -2.845422 -2.325506
0000c0 65 20 5b 40 f0 d8 58 40 7b af 6a c0 9a 3e 30 c0
       3.4238522 3.3882408 -3.6669605 -2.753821
0000d0 65 58 32 40 c0 7a 4f 40 6d 92 57 c0 ed 99 3e c0
       2.7866452 3.241867 -3.3683121 -2.978145
0000e0 aa 02 df 3f 54 2a 9c 3f 44 b8 98 bf 88 1a 24 bf
       1.7422688 1.2200418 -1.1931233 -0.64102983
0000f0 15 18 3e 40 19 27 4a 40 a8 1a 52 c0 82 33 4a c0
       2.9702199 3.1586363 -3.282877 -3.1593938
000100 74 a4 6c 40 09 c0 1c 40 3b 14 31 c0 a6 ab 45 c0
       3.6975374 2.449221 -2.7668598 -3.0886016
000110 a4 a8 5b 40 d4 58 57 40 f0 2f 57 c0 7e 78 47 c0
       3.432168 3.3647966 -3.3623009 -3.1167293
000120 2f 33 f9 3f 97 e4 20 3e 66 38 9d bf 7a 0f 99 3d
       1.9468745 0.157122 -1.2282836 0.07473655
000130 a0 f0 38 40 a2 a7 2b 40 4e 11 2e c0 b5 e8 35 c0
       2.8896866 2.6821065 -2.7198062 -2.8423283
000140 20 28 4c 40 37 94 56 40 53 15 5a c0 d6 6c 3b c0
       3.189949 3.3527963 -3.4075515 -2.9285178
000150 c0 17 0f 40 87 ba ea 3f f3 9c 11 c0 e9 36 d0 bf
       2.2358246 1.8338174 -2.2752044 -1.6266757
000160 89 62 59 40 3c 83 4f 40 b2 6e 62 c0 de 14 2f c0
       3.396639 3.242385 -3.5380063 -2.7356486
000170 bd ff a5 3f ec 11 71 3f b6 90 12 be 40 af 10 3e
       1.296867 0.9416797 -0.14313015 0.14129353

0.bias f4 [24]
000000 c4 5f 4c 40 58 3f 3e 40 59 9f 48 40 8c 0f 2d 40
       3.193345 2.9726162 3.1347258 2.704074
000010 0b 09 36 40 4d 7d 43 40 cc 0d 17 40 6f e8 29 40
       2.844302 3.0545228 2.360217 2.6548116
000020 ec 7d 32 40 4e a7 43 40 a8 8f 41 40 2e 50 51 40
       2.7889357 3.0570865 3.024393 3.2705188
000030 88 55 33 40 df 16 3c 40 62 2e 3d 40 20 dc 23 40
       2.8020954 2.938896 2.955956 2.5603104
000040 ac 65 44 40 25 20 3f 40 69 b0 3a 40 09 3d 39 40
       3.0687056 2.986337 2.9170172 2.8943503
000050 b0 54 4a 40 19 97 43 40 4a a8 37 40 a5 7a 25 40
       3.161419 3.0560973 2.8696465 2.5856106

2.weight f4 [24, 24]
000000 b5 b7 48 40 65 a2 4c 40 32 9c 37 40 03 22 42 40
       3.1362126 3.1974118 2.8689084 3.033326
000010 c5 27 48 40 74 f2 42 40 89 f4 45 40 2e 71 5a 40
       3.1274273 3.0460482 3.0930502 3.413158
000020 ec 37 42 40 6d 81 55 40 75 30 58 40 2a 62 3f 40
       3.0346632 3.3360245 3.3779576 2.9903665
000030 8a 0c 4e 40 b7 ab 3e 40 6b 83 52 40 a8 64 48 40
       3.2195153 2.9792306 3.289271 3.1311436
000040 c7 0b 4b 40 02 fc 43 40 a0 0a 4e 40 6b 35 3e 40
       3.1725938 3.0622563 3.2193985 2.9720104
000050 96 71 43 40 f2 c2 56 40 a6 73 47 40 97 05 5e 40
       3.0538077 3.3556485 3.1164336 3.4690912
000060 f9 40 2e 40 10 d9 2b 40 f8 4b 37 40 d8 79 20 40
       2.7227156 2.6851234 2.8640118 2.5074368
000070 c4 b5 28 40 0b 69 33 40 5d 4b 26 40 fc a9 5e 40
       2.636094 2.8032863 2.5983498 3.479125
000080 6d 69 23 40 a3 2f 3b 40 2f 56 46 40 64 83 33 40
       2.5533097 2.9247825 3.0990102 2.8048944
000090 22 16 33 40 0f 9e 1a 40 e6 ec 49 40 4a 52 27 40
       2.7982259 2.4158971 3.1550841 2.6143975
0000a0 17 cf 32 40 3b 4e 29 40 61 f4 58 40 db 85 31 40
       2.7938898 2.6453998 3.3899157 2.773795
0000b0 f0 0f 22 40 3c cf 4b 40 80 d9 22 40 bd 13 55 40
       2.5322227 3.1845236 2.5445251 3.3293297
0000c0 f6 41 8a bd 46 54 13 be 00 ed ed bd 17 24 fc bd
       -0.06750862 -0.14387617 -0.1161747 -0.12311571
0000d0 b5 79 b6 3c 75 7b e1 3a 9c e2 86 3d 75 db ad bc
       0.022274831 0.0017202931 0.06586191 -0.02122281
0000e0 92 6b 94 3d 6f ec 33 bc 1e b8 e6 3d ba a5 3e be
       0.0724708 -0.010981663 0.11265586 -0.18617907
0000f0 16 8c 9e bd a3 82 07 3e 35 14 12 be 46 41 07 3e
       -0.07741563 0.13233428 -0.14265521 0.13208494
000100 d2 30 16 3e 96 08 31 be c5 74 76 3c 41 24 38 3d
       0.14667061 -0.17288432 0.015042488 0.04495645
000110 24 57 d0 bc 49 93 94 3d d2 cc d8 3b 39 ef 30 be
       -0.025432177 0.07254655 0.0066162134 -0.17278756
000120 01 96 c4 3c 83 e4 14 3e 2f dc 4e be 67 63 ef 3c
       0.023997309 0.14540295 -0.20201181 0.029222203
000130 3b 9f a9 bd 4c 85 39 bc bb aa ac 3d ba bd b2 3c
       -0.08282324 -0.011323284 0.08431002 0.021818984
000140 9e 85 e6 3d 4f c1 6e be 2b e0 0e 3e fa 60 ba bd
       0.11255954 -0.23315929 0.13952701 -0.09100528
000150 d5 66 3e be f2 75 44 be 48 44 37 3b a2 ba bb 3c
       -0.18593915 -0.19185618 0.0027964283 0.022916142
000160 a9 cc e6 3d 6d 23 0d 3d f8 ca f7 bd ab 57 90 bd
       0.112695046 0.034457613 -0.1209926 -0.07047971
000170 6a 99 46 be 40 4f ec 3d bf bd 97 bd 6f dd 6c be
       -0.1939446 0.11538553 -0.07409238 -0.23131345
000180 90 6e 22 40 6b ac 1e 40 77 87 23 40 95 15 26 40
       2.5379982 2.4792736 2.555143 2.5950673
000190 59 76 1e 40 bc 86 29 40 bc bc 18 40 11 7b 3a 40
       2.4759734 2.6488485 2.3865194 2.9137614
0001a0 c6 d2 17 40 8c 8c 22 40 61 7b 31 40 90 25 1c 40
       2.3722396 2.5398283 2.7731555 2.4397926
0001b0 00 e2 28 40 9a 34 16 40 a0 57 3d 40 8c 01 18 40
       2.638794 2.3469605 2.9584732 2.3750944
0001c0 2c 7c 27 40 90 7b 19 40 d3 a5 37 40 7d 03 17 40
       2.6169538 2.3981667 2.869496 2.359588
0001d0 57 25 28 40 ae 37 2c 40 0c 0d 16 40 2a 51 3d 40
       2.627279 2.6908984 2.3445463 2.9580789
0001e0 41 1e 81 bd a9 93 18 3e e4 a1 36 ba 86 dc 02 be
       -0.063045986 0.14900078 -0.00069668726 -0.12779436
0001f0 fa ff e4 bd 2e 2a 18 3e dd 0a 48 3e 56 3f 70 be
       -0.11181636 0.1485984 0.19535394 -0.2346166
000200 0b c3 53 be 6b e0 00 3e 9d b5 bd bb 86 08 c8 bd
       -0.20679872 0.12585609 -0.0057894723 -0.09767251
000210 6d fa 38 3e 99 46 0d be 5d fa 00 3e 33 88 96 3d
       0.1806428 -0.13796462 0.12595506 0.07350197
000220 b2 ca b3 bd d1 a9 12 bd 8e a7 79 bd 1c 39 00 be
       -0.087788954 -0.03580648 -0.06095081 -0.12521785
000230 3c 21 ad bc 76 ea dc 3d eb 43 62 bd df e7 0a be
       -0.021134011 0.107869074 -0.055240553 -0.13565014
000240 55 f0 32 40 58 27 36 40 c6 db 32 40 a4 bd 33 40
       2.7959187 2.8461514 2.794664 2.8084497
000250 a1 04 2e 40 c2 1e 43 40 72 90 46 40 5b 24 4d 40
       2.7190325 3.0487523 3.1025662 3.205344
000260 e9 a3 46 40 9e 9b 34 40 88 a3 50 40 a5 89 38 40
       3.1037543 2.8219981 3.2599812 2.8834012
000270 1b 10 37 40 f8 e7 3c 40 c1 fd 54 40 4f e0 48 40
       2.860358 2.9516582 3.327988 3.1386907
000280 4e b9 3f 40 c3 db 3e 40 40 71 47 40 0e 9f 41 40
       2.995685 2.9821632 3.1162872 3.025333
000290 ee 33 3d 40 be db 58 40 81 eb 38 40 9c 4b 4f 40
       2.9562945 3.388412 2.889374 3.2389898
0002a0 f0 63 43 40 98 aa 4a 40 e8 dc 33 40 50 53 36 40
       3.0529747 3.1666622 2.810358 2.848835
0002b0 dd 7a 46 40 2f 58 49 40 50 87 43 40 b3 55 54 40
       3.101249 3.1460073 3.0551338 3.3177307
0002c0 9c 5d 48 40 24 4d 3d 40 cb 42 5a 40 7f 15 47 40
       3.1307135 2.9578333 3.4103267 3.110687
0002d0 5f 46 4c 40 74 c0 3c 40 b4 1d 5a 40 b9 1d 3c 40
       3.191795 2.9492464 3.408063 2.9393141
0002e0 4f 02 46 40 a6 3f 47 40 63 93 58 40 34 98 4c 40
       3.093891 3.1132598 3.3839958 3.1967897
0002f0 06 22 45 40 80 c0 43 40 8a 44 4e 40 72 b8 55 40
       3.0802016 3.0586243 3.2229333 3.3393826
000300 42 0d 36 40 b9 2d 34 40 b1 98 39 40 b3 48 43 40
       2.8445592 2.8152907 2.8999445 3.0513122
000310 da 84 3d 40 3e f2 3f 40 59 a9 41 40 fc 41 56 40
       2.9612336 2.9991603 3.0259612 3.3477774
000320 47 49 2c 40 3c f9 40 40 4b ba 44 40 bf 35 47 40
       2.6919725 3.015212 3.0738704 3.1126554
000330 51 80 3f 40 04 a5 43 40 1d 6f 44 40 bf cc 29 40
       2.9922068 3.0569468 3.0692818 2.6531217
000340 78 bd 33 40 43 d8 2e 40 87 0c 4e 40 56 ee 46 40
       2.8084393 2.7319496 3.2195146 3.1082969
000350 5f d3 38 40 fd c1 54 40 e0 6f 32 40 ee f7 50 40
       2.887901 3.32434 2.7880783 3.2651324
000360 72 b9 39 40 9b 45 3c 40 a7 7e 51 40 63 a2 4f 40
       2.9019437 2.9417484 3.2733552 3.2442863
000370 a3 7f 4f 40 ab 35 48 40 9f 1d 40 40 a1 c8 56 40
       3.2421653 3.1282756 3.001808 3.3559954
000380 c6 9b 44 40 ca b8 54 40 ef 0f 47 40 c1 9b 39 40
       3.0720077 3.3237786 3.1103475 2.9001315
000390 5a 48 44 40 8e 38 47 40 31 b6 54 40 f9 5f 45 40
       3.066916 3.1128268 3.32362 3.0839827
0003a0 32 89 3b 40 87 92 47 40 b2 ff 56 40 14 1e 3e 40
       2.9302487 3.1183183 3.3593564 2.9705858
0003b0 cb e2 45 40 76 11 53 40 be 5c 39 40 63 de 53 40
       3.0919673 3.2979407 2.8962855 3.3104484
0003c0 e7 e2 46 40 f7 59 3c 40 05 22 54 40 e3 2f 48 40
       3.107599 2.942991 3.3145764 3.1279228
0003d0 bd cc 39 40 73 13 4b 40 eb 06 3b 40 4e e7 69 40
       2.9031212 3.173062 2.9222972 3.6547427
0003e0 d4 32 4e 40 ff 49 59 40 5e 73 61 40 71 a2 4f 40
       3.2218523 3.3951414 3.5226665 3.2442896
0003f0 4f 5f 41 40 b9 b1 49 40 19 53 61 40 d6 74 3b 40
       3.0214422 3.1514723 3.5206969 2.929006

2.bias f4 [24]
000000 1d 5e 4d 40 59 1b 4b 40 e7 be 5a 3d df 22 ef 3d
       3.2088692 3.1735442 0.053404715 0.11676573
000010 be 0f 28 40 5f 90 2f bd f4 49 3e 40 fa 04 42 40
       2.6259608 -0.042862292 2.9732637 3.0315537
000020 a7 87 44 40 90 4f 40 40 a9 1c 41 40 d5 c2 4f 3d
       3.0707796 3.004856 3.0173743 0.050722916
000030 5d 63 34 40 e2 f2 49 40 20 f5 45 40 5b e9 52 40
       2.8185647 3.1554494 3.0930862 3.295493
000040 b9 87 b7 bd 27 43 43 40 0c 9f 3b 40 d0 aa 50 40
       -0.08961434 3.0509737 2.9315825 3.2604256
000050 59 c6 4c 40 ee d3 4f 40 5c 32 4e 40 a5 68 f4 3d
       3.1996062 3.2473102 3.2218237 0.11934022

4.weight f4 [2, 24]
000000 5d 4c 10 40 1a d3 1b 40 98 f5 0b be 77 fc f9 bd
       2.2546608 2.4347596 -0.13667905 -0.12206357
000010 c0 09 0e 40 0a 6b 98 bd c0 91 0f 40 bf 9d 0c 40
       2.219345 -0.07442291 2.2432709 2.197128
000020 05 69 0b 40 55 f6 20 40 b4 7c 26 40 0f 2c f9 bd
       2.178285 2.515035 2.6013613 -0.12166607
000030 f4 60 15 40 ca da 1f 40 89 80 1e 40 5e 48 10 40
       2.3340425 2.4977288 2.4765952 2.254417
000040 fd 10 2d bb 43 93 1b 40 bc e9 16 40 e8 2a 1b 40
       -0.002640783 2.4308631 2.358016 2.4244938
000050 cf 9f 1a 40 f5 69 17 40 d0 91 24 40 e0 72 fd bd
       2.416004 2.365842 2.5713997 -0.12375426
000060 b0 f4 3a 40 55 68 22 40 70 b1 d2 3d 21 c4 8a 3d
       2.9211845 2.537618 0.1028775 0.0677569
000070 61 ef 1c 40 44 ed 20 3d 9c 8c 2d 40 d9 54 39 40
       2.4521105 0.039288774 2.711707 2.8958037
000080 e6 58 2d 40 63 b4 31 40 60 42 26 40 ea f1 93 bd
       2.708551 2.776635 2.5978012 -0.07223876
000090 4b f3 25 40 a7 cd 35 40 f2 a3 30 40 7d 6a 3a 40
       2.5929744 2.840677 2.7600064 2.9127495
0000a0 a3 90 85 bd bc 71 34 40 0e 28 3e 40 43 a1 36 40
       -0.06521728 2.8194418 2.9711947 2.8535926
0000b0 77 d8 28 40 96 78 3b 40 b1 a3 35 40 1b df 3a bc
       2.638212 2.929235 2.838116 -0.011405732

4.bias f4 [2]
000000 26 66 d4 bd ac 11 38 40
       -0.10371046 2.8760786
