qlearning_agent_policy_20250605_114643.pth (torch, 6014 bytes, 6 tensors)

0.weight f4 [24, 4]
-0.11977256 -0.039134096 -0.43696642 -0.343637 -1.2920537 -0.12507494 3.3360555 0.57060057
0.7258609 0.23821191 -0.07612045 0.002493994 -0.9225456 -0.48818076 -0.54582036 -0.055664077
-0.45778954 -0.48831737 -0.59195834 -0.66229624 -0.7076463 -1.4110168 -0.52696085 0.11731971
-0.3831541 -0.43918297 -0.77844286 0.1954205 -1.2163832 -0.484407 -0.072562344 -0.11091956
0.666404 0.036466375 0.17350069 -0.3221629 -1.0027981 -1.1244854 -0.3081515 -0.107574195
-1.3446466 -0.90500224 -0.6244459 -0.5105406 -1.4924614 -0.7255113 -0.6893197 -0.37184578
0.19102918 0.26832741 0.6871779 -0.42293432 0.6848191 0.5275756 -0.71107113 -0.4264466
0.7726615 0.49927124 -0.10395295 -0.34151793 -1.0003021 -0.3022806 2.5919394 0.1869914
-1.4297117 -0.55389285 0.049948204 -0.367581 -0.1527521 0.2501325 0.07003228 0.1090239
-1.1860609 0.1593407 -0.569091 -0.3539725 -0.7413725 -0.7636749 -0.32421044 -0.4029249
0.3205839 0.28071395 0.37458053 0.52156776 -1.0658524 -1.4744077 -0.59701574 -0.0068147294
-0.6775341 -0.8399319 -0.13476661 -0.61822444 -0.7289858 -0.816631 -0.47855908 -0.054900568
00000000: 514b f5bd 134b 20bd 10ba dfbe 30f1 afbe
00000010: 0462 a5bf a513 00be ef81 5540 e112 123f
00000020: 05d2 393f d3ed 733e 0ae5 9bbd 4772 233b
00000030: f32b 6cbf d4f2 f9be e2ba 0bbf 0400 64bd
00000040: 6463 eabe bc04 fabe 958a 17bf 3f8c 29bf
00000050: 4f28 35bf 339c b4bf e8e6 06bf 5145 f03d
00000060: c62c c4be 97dc e0be 0848 47bf 501c 483e
00000070: 72b2 9bbf 3204 f8be 919b 94bd cb29 e3bd
00000080: 7499 2a3f c45d 153d 2aaa 313e 89f2 a4be
00000090: b05b 80bf 23ef 8fbf 09c6 9dbe dc4f dcbd
000000a0: 611d acbf 3aae 67bf b0db 1fbf cab2 02bf
000000b0: fa08 bfbf 1cbb 39bf 4177 30bf 9262 bebe
000000c0: 279d 433e 3662 893e e4ea 2f3f d98a d8be
000000d0: 4e50 2f3f 320f 073f c208 36bf 3557 dabe
000000e0: 25cd 453f 7ba0 ff3e 49e5 d4bd 70db aebe
000000f0: e609 80bf 86c4 9abe 56e2 2540 ac7a 3f3e
00000100: cb00 b7bf eccb 0dbf 7d96 4c3d 9433 bcbe
00000110: 0c6b 1cbe 5e11 803e 166d 8f3d ec47 df3d
00000120: d8d0 97bf 352a 233e f3af 11bf e23b b5be
00000130: 97ca 3dbf 3380 43bf e9fe a5be 2c4c cebe
00000140: 9323 a43e bdb9 8f3e 05c9 bf3e 7785 053f
00000150: da6d 88bf 64b9 bcbf 06d6 18bf 184e dfbb
00000160: e072 2dbf c705 57bf 4200 0abe f543 1ebf
00000170: d09e 3abf bb0e 51bf b205 f5be 6bdf 60bd

0.bias f4 [24]
1.3528461 0.30720997 1.3376697 1.1910818 1.0572585 0.19433104 1.2361349 0.87703466
1.4108329 0.74960095 -0.35505164 -0.21055466 1.5736692 1.0169207 1.5730541 0.044494137
0.5738216 -0.3037372 -0.067115955 0.6461294 1.4952532 0.5158077 0.83864576 0.7423087
00000000: 102a ad3f a04a 9d3e c338 ab3f 5e75 983f
00000010: 3f54 873f b7fe 463e ab39 9e3f 5885 603f
00000020: 2c96 b43f d9e5 3f3f 54c9 b5be a49b 57be
00000030: fe6d c93f 752a 823f d659 c93f 7c3f 363d
00000040: f9e5 123f 7183 9bbe 1774 89bd bd68 253f
00000050: 7564 bf3f f90b 043f 7db1 563f f107 3e3f

2.weight f4 [24, 24]
0.6279495 -0.7128017 0.9282974 0.5959233 0.60109663 0.3884783 0.5850308 0.4758807
0.8002753 0.3824648 0.365168 0.2665803 0.7321272 0.9304751 3.064727 -0.90170515
0.19931 0.025303172 -0.6600267 0.19375914 1.1400164 0.50468343 0.35060224 0.6921791
0.8777416 -2.4516492 1.0429211 0.8739978 0.86280054 0.6741589 0.687629 0.5389289
1.093103 0.65407056 0.5349248 0.4808063 0.742636 0.3091781 1.1212691 -2.649739
0.53839 0.117016576 -0.38694987 0.55131406 0.8882893 0.5922582 0.7526212 0.6274072
0.87556463 -0.025938755 0.95791924 1.6907766 0.48411793 0.39461273 1.6566154 1.4615636
0.7254432 1.0208379 0.6683793 0.90553284 0.5367664 0.6006078 0.67254174 -0.58486784
0.41613737 -0.093513146 -1.990436 0.52823746 1.6131352 0.8628914 0.4298907 1.1524246
0.8205171 -2.2262034 0.98683846 0.813882 0.884445 0.48504794 1.0655402 0.7458884
1.0654864 0.6756191 0.6665281 0.61305565 0.691702 0.53421396 1.3075005 -2.1534667
0.3856189 -0.14983329 -0.4310744 0.78859955 0.9242702 0.9434773 0.9125218 0.79948944
0.062132046 -0.11738586 -0.02379051 -0.21159355 0.024611693 0.053617284 -0.056094006 -0.1622473
0.13642807 0.051754396 -0.12538403 0.097014576 -0.18951482 -0.16409406 -0.019475546 -0.060846567
-0.16060619 0.05002133 -0.10145286 -0.14984588 -0.0113194585 0.051772315 -0.1935064 0.13679267
0.01263575 -0.20260867 -0.24312122 0.10907094 0.09317592 -0.19212517 -0.08558829 -0.14450942
-0.18208301 -0.10843226 0.12219002 -0.068438195 -0.09949919 -0.09265816 -0.17142443 -0.15418892
-0.2029949 -0.009557184 -0.17247663 0.071728826 0.06085554 0.0251242 -0.038669776 0.022119485
0.92632794 -1.1131964 0.922352 0.9571034 0.50505584 0.6381101 1.0156225 1.0313243
0.8167267 0.6989781 0.55942637 0.59339166 0.85190856 0.70839924 1.3018446 -1.5032743
0.21504164 -0.15369968 -0.5354005 0.6115644 1.4778751 0.8788063 0.6189415 0.8142654
0.90436673 -1.1309174 0.631959 1.2648683 0.79249156 0.31201962 1.1628783 1.1250498
0.7003074 1.0079167 0.5753688 0.6624604 0.556698 0.61883247 0.53197074 -0.9666966
0.15166682 0.1832521 -2.3529844 0.5144054 1.25648 0.6778341 0.70941716 0.79830533
0.7448184 -3.0212734 1.0919528 0.85826325 0.7561553 0.44230992 0.64637166 0.764172
0.93865997 0.45334816 0.7015666 0.5986049 0.5126442 0.5436612 0.8404526 -2.5721467
0.52585596 0.0927727 -0.26404515 0.659012 0.6853635 0.5097939 0.73307645 0.53083366
0.17705162 2.7260733 1.5612491 -0.18156263 -0.73090774 -1.1358321 0.6579194 -0.56691366
1.0444336 -0.6684012 -0.8940121 -1.291991 0.3057559 0.014106331 1.8210943 0.95780414
-1.5300184 0.01921383 0.25773698 -1.2018579 2.1610367 -0.8353776 -1.1326185 -0.08081326
0.089346625 -0.2278954 -0.15529504 -0.07585687 -0.13228184 -0.2142157 0.030216437 -0.06494527
0.05103463 -0.028317608 0.04061913 -0.20480168 -0.20300227 0.0249342 -0.03612519 0.014803222
00000000: 4cc1 203f 2c7a 36bf e6a4 6d3f 6e8e 183f
00000010: 78e1 193f a1e6 c63e 94c4 153f a3a6 f33e
00000020: d8de 4c3f 6dd2 c33e 4df7 ba3e 377d 883e
00000030: b06c 3b3f 9e33 6e3f 7d24 4440 26d6 66bf
00000040: ec17 4c3e 9948 cf3c 83f7 28bf cc68 463e
00000050: 0fec 913f ef32 013f 2382 b33e a632 313f
00000060: acb3 603f d2e7 1cc0 707e 853f 52be 5f3f
00000070: 7fe0 5c3f ad95 2c3f 7408 303f 3ff7 093f
00000080: cdea 8b3f 2b71 273f d5f0 083f 3e2c f63e
00000090: 651d 3e3f 984c 9e3e bf85 8f3f 5395 29c0
000000a0: edd3 093f 63a6 ef3d 4b1e c6be eb22 0d3f
000000b0: ed66 633f 3c9e 173f c8ab 403f c29d 203f
000000c0: 0125 603f 837d d4bc 323a 753f 5e6b d83f
000000d0: 4ede f73e ae0a ca3e f90b d43f 8414 bb3f
000000e0: a5b6 393f d1aa 823f e81a 2b3f 00d1 673f
000000f0: 8669 093f 6fc1 193f b22b 2c3f e6b9 15bf
00000100: f50f d53e d283 bfbd 9bc6 febf 923a 073f
00000110: 377b ce3f 73e6 5c3f a21a dc3e a682 933f
00000120: 690d 523f 1e7a 0ec0 72a1 7c3f 925a 503f
00000130: fd6a 623f 3458 f83e 9f63 883f 8bf2 3e3f
00000140: dc61 883f 60f5 2c3f 96a1 2a3f 37f1 1c3f
00000150: 6213 313f 3fc2 083f 2d5c a73f 66d2 09c0
00000160: d76f c53e e66d 19be c9b5 dcbe a9e1 493f
00000170: f99c 6c3f ba87 713f 079b 693f 57ab 4c3f
00000180: 2c7e 7e3d ff67 f0bd 51e4 c2bc fbab 58be
00000190: 769e c93c cc9d 5b3d d4c2 65bd 2824 26be
000001a0: cdb3 0b3e 6bfc 533d ac64 00be 94af c63d
000001b0: 2c10 42be 4608 28be 2e8b 9fbc 403a 79bd
000001c0: f375 24be 2be3 4c3d 84c6 cfbd 3371 19be
000001d0: 4075 39bc 350f 543d 8b26 46be 6113 0c3e
000001e0: 2d06 4f3c a678 4fbe c5f4 78be 9660 df3d
000001f0: 04d3 be3d 76bc 44be ea48 afbd 47fa 13be
00000200: f873 3abe bc11 debd c33e fa3d 5329 8cbd
00000210: 3bc6 cbbd 90c3 bdbd e389 2fbe b3e3 1dbe
00000220: e5dd 4fbe bc95 1cbc b79d 30be 90e6 923d
00000230: a943 793d 44d1 cd3c 3364 1ebd ec33 b53c
00000240: d423 6d3f 387d 8ebf 431f 6c3f ba04 753f
00000250: 574b 013f 2f5b 233f ebff 813f 6f02 843f
00000260: 0015 513f 3bf0 323f 9136 0f3f 84e8 173f
00000270: ae16 5a3f a759 353f d8a2 a63f 4b6b c0bf
00000280: e033 5c3e 7363 1dbe 0210 09bf 7c8f 1c3f
00000290: 032b bd3f 73f9 603f f372 1e3f b273 503f
000002a0: 9484 673f e7c1 90bf 11c8 213f 34e7 a13f
000002b0: bae0 4a3f 09c1 9f3e 32d9 943f a201 903f
000002c0: 5947 333f 6a03 813f 5f4b 133f 0197 293f
000002d0: c383 0e3f ce6b 1e3f 3c2f 083f 6e79 77bf
000002e0: 8c4e 1b3e 70a6 3b3e 4c97 16c0 13b0 033f
000002f0: 56d4 a03f 8986 2d3f 5d9c 353f bd5d 4c3f
00000300: 6bac 3e3f 8b5c 41c0 1cc5 8b3f 24b7 5b3f
00000310: 6593 413f 7276 e23e 9d78 253f c7a0 433f
00000320: 054c 703f 401d e83e de99 333f 2c3e 193f
00000330: a63c 033f 612d 0b3f e727 573f 0d9e 24c0
00000340: 7f9e 063f 9dff bd3d ed30 87be 03b5 283f
00000350: fb73 2f3f da81 023f e6aa 3b3f b7e4 073f
00000360: 054d 353e fc77 2e40 03d7 c73f 8eeb 39be
00000370: c51c 3bbf f262 91bf 686d 283f 4121 11bf
00000380: 00b0 853f 571c 2bbf fadd 64bf f65f a5bf
00000390: 0a8c 9c3e 3e1e 673c 9e19 e93f a732 753f
000003a0: a5d7 c3bf 5266 9d3c 1af6 833e 7bd6 99bf
000003b0: 6d4e 0a40 4edb 55bf a5f9 90bf 6c81 a5bd
000003c0: 5dfb b63d 695d 69be aa05 1fbe d95a 9bbd
000003d0: e474 07be 5c5b 5bbe 7688 f73c 0702 85bd
000003e0: b009 513d 54fa e7bc 3f60 263d 88b7 51be
000003f0: d4df 4fbe cf42 cc3c 02f8 13bd 3789 723c

2.bias f4 [24]
1.3564336 1.2174695 1.2978992 1.0493532 -0.18978277 0.1697204 1.337788 0.92664385
0.8258731 2.3676596 -0.0030323465 1.1162977 0.9225635 1.0565836 1.0745524 1.2184649
1.3148949 1.1479907 1.1608365 0.9915243 0.9229634 0.83808064 0.93799084 1.2515024
00000000: 9e9f ad3f 0ad6 9b3f 9021 a63f 3551 863f
00000010: 6a56 42be 2fcb 2d3e a33c ab3f 8838 6d3f
00000020: 6b6c 533f bc87 1740 55ba 46bb d8e2 8e3f
00000030: 1f2d 6c3f 223e 873f ef8a 893f a8f6 9b3f
00000040: 7a4e a83f 5cf1 923f 4a96 943f 89d4 7d3f
00000050: 5447 6c3f 748c 563f 2b20 703f 3b31 a03f

4.weight f4 [2, 24]
2.0703504 1.9916849 0.9287246 1.9420027 -0.11116705 0.039554585 1.8168077 1.1957083
2.0196528 0.5843075 0.058315553 1.7933452 2.208194 1.8830204 2.1735365 1.9977932
2.0334647 1.8899456 1.7630931 2.1285427 1.6667525 1.248888 2.0508475 2.0773318
1.5239828 1.4844403 1.9949731 1.6891913 -0.019163566 -0.1606879 2.1258385 2.5360026
1.3986267 3.6367917 -0.121035546 1.8751853 1.1090724 1.7607502 1.6742738 1.3724394
1.9124633 1.9518365 2.110462 1.133422 2.1132512 2.7706895 1.4145824 1.3220599
00000000: 9f80 0440 88ef fe3f e5c0 6d3f 8b93 f83f
00000010: 8dab e3bd fd03 223d 288d e83f f80c 993f
00000020: fe41 0140 2d95 153f 4adc 6e3d 568c e53f
00000030: 0d53 0d40 d006 f13f 391b 0b40 b0b7 ff3f
00000040: 4924 0240 bde9 f13f 09ad e13f 0b3a 0840
00000050: 2558 d53f 90db 9f3f 1641 0340 01f3 0440
00000060: de11 c33f 2402 be3f 475b ff3f 6c37 d83f
00000070: e9fc 9cbc 5e8b 24be bd0d 0840 de4d 2240
00000080: 3306 b33f 32c1 6840 7ce1 f7bd 1206 f03f
00000090: 16f6 8d3f 4360 e13f 9b4e d63f 18ac af3f
000000a0: 99cb f43f c7d5 f93f cf11 0740 f913 913f
000000b0: 823f 0740 fa52 3140 0911 b53f 4239 a93f

4.bias f4 [2]
1.5525172 0.9964332
00000000: e2b8 c63f 3f16 7f3f
