qlearning_agent_policy_20250605_113727.pth (torch, 6014 bytes, 6 tensors)

0.weight f4 [24, 4]
-0.0123923905 -0.41262504 0.10220061 -0.3961015 0.23917322 0.07457472 -1.580217 -0.73344016
-0.7596689 0.2343429 -0.0934459 -0.13146187 0.2192639 -0.4427333 -0.045145527 0.77110124
0.4619575 -0.52187485 -1.6153799 -0.7669781 -0.62500834 0.28394955 -0.09302827 0.020512292
-0.06926526 -0.2742382 0.16369401 -0.41991577 0.23321491 -0.1276791 -0.0567716 -0.30537674
-0.3139524 0.00025913317 0.009390267 -0.106912225 0.053972833 0.29592028 -0.13931988 0.073410004
0.11207815 -0.259123 -0.23913564 -0.20582202 -0.41371897 0.14718571 -0.132561 -0.031585373
0.5448137 0.9665803 1.3703387 0.37382862 -0.06397312 0.33658972 1.2496887 0.28603977
-0.2939147 -0.18414624 0.5247597 -0.22488174 -0.6140476 -0.4825231 -0.48107457 -0.48037305
-0.09861856 -0.31205302 -0.34354857 -0.3006596 -0.07710773 0.21674052 0.63120794 -0.25975353
-0.7923569 -1.2190298 0.21923785 0.31566188 -0.909347 -0.2331241 0.16757393 -0.33683667
0.067950495 -0.07972211 -0.08270833 0.18032032 0.2797862 0.3887342 -0.2998992 -0.11843264
0.04298513 0.37436333 0.32104355 -0.13235131 0.3077451 -0.03223774 -0.33999568 -0.13962683
00000000: 7409 4bbc 9743 d3be 8e4e d13d d1cd cabe
00000010: d3e9 743e a1ba 983d 8d44 cabf bcc2 3bbf
00000020: a979 42bf 96f7 6f3e 9060 bfbd f19d 06be
00000030: b786 603e f0ad e2be 84ea 38bd e466 453f
00000040: b285 ec3e 9799 05bf c5c4 cebf ad58 44bf
00000050: 8c00 20bf d661 913e 9b85 bebd 6509 a83c
00000060: f2da 8dbd f368 8cbe 679f 273e 33ff d6be
00000070: e4cf 6e3e 4fbe 02be 5689 68bd 575a 9cbe
00000080: 5ebe a0be 44dc 8739 a2d9 193c ccf4 dabd
00000090: 9e12 5d3d dd82 973e dfa9 0ebe fc57 963d
000000a0: 3b89 e53d c5ab 84be f9df 74be 02c3 52be
000000b0: f9d2 d3be dab7 163e 12be 07be aa5f 01bd
000000c0: e978 0b3f ce71 773f 4267 af3f 7766 bf3e
000000d0: 5704 83bd 7d55 ac3e cdf5 9f3f ce73 923e
000000e0: fd7b 96be d590 3cbe a756 063f 6647 66be
000000f0: 3932 1dbf 450d f7be 684f f6be 75f3 f5be
00000100: 87f8 c9bd 6ac5 9fbe 99e5 afbe 0ef0 99be
00000110: a8ea 9dbd 3af1 5d3e d896 213f 6afe 84be
00000120: e7d7 4abf 2b09 9cbf e37f 603e 6f9e a13e
00000130: f7ca 68bf 16b8 6ebe 8098 2b3e db75 acbe
00000140: a129 8b3d 5845 a3bd fc62 a9bd e4a5 383e
00000150: 2340 8f3e 2b08 c73e 638c 99be d08c f2bd
00000160: 2d11 303d 8dac bf3e d25f a43e 1a87 07be
00000170: c490 9d3e b80b 04bd ea13 aebe 56fa 0ebe

0.bias f4 [24]
0.6096048 -0.38222674 0.760094 0.12499903 -0.31113636 0.94024265 0.82000047 0.62985337
0.57927847 0.8006757 0.68339217 0.62156534 -0.10139125 0.8539807 0.7981492 0.86087286
0.7493832 -0.42474675 0.27901804 0.85122764 0.64316964 0.80621684 0.842639 0.7899248
00000000: 0f0f 1c3f 39b3 c3be 8595 423f 7eff ff3d
00000010: 444d 9fbe beb3 703f 8deb 513f 123e 213f
00000020: 984b 143f 15f9 4c3f caf2 2e3f e81e 1f3f
00000030: 37a6 cfbd 7b9e 5a3f 8253 4c3f 2a62 5c3f
00000040: 94d7 3f3f 6878 d9be 74db 8e3e 0eea 593f
00000050: c4a6 243f 3a64 4e3f 31b7 573f 8338 4a3f

2.weight f4 [24, 24]
0.15423177 0.66993344 0.0076694973 -0.7601852 0.5542006 -0.3630463 -0.004001663 -0.045529645
0.17478263 -0.6141497 -0.26178727 -0.1919592 0.428103 -0.017759003 -0.07300352 0.3087054
-0.12652297 0.06927185 -0.43616557 0.009252535 -0.6048701 -0.3789363 -0.4348802 -0.43996215
0.3365244 -0.9419928 0.06892805 0.26706615 -1.459244 0.4684192 0.389259 0.3695504
0.17535587 0.9665116 0.6767002 0.48001313 -0.4766409 -0.38974974 0.38114372 0.16829287
0.44062832 -0.10698265 0.4578372 -0.0946051 0.51361096 0.6446625 0.5474995 0.59363973
-0.46942192 0.020370275 -0.4567138 0.9669552 -0.99705064 0.53500515 -0.5840075 -0.02766029
-0.8853341 0.45708305 0.4539831 0.30097988 -0.22283879 -0.87329745 0.3315525 -1.1110637
-0.011231739 0.14948823 -0.38507476 -1.0623513 0.6310476 -0.66557837 -0.56513053 0.41458857
0.40137312 -0.8959114 0.33568907 0.008981972 -1.0200655 0.27606255 0.3367555 0.6712588
0.058284584 0.662337 0.65123856 0.4953431 -0.62183243 -0.32748425 0.2185981 0.101375796
0.36826134 -0.09262235 0.14832568 0.38875362 0.101479 0.5759338 0.44510305 0.5508827
-0.07029665 0.035848986 -0.09908819 -0.049819395 0.030875359 0.16105661 0.07224141 -0.107720636
-0.011938243 -0.1933964 0.018849952 -0.059850175 -0.0059838416 0.11672453 -0.05497022 0.116305724
-0.07913375 -0.106555976 -0.1323246 -0.0783345 0.060142003 -0.19571976 -0.08087802 0.16091353
0.48097062 -0.7941718 0.46312457 -0.27830964 -0.47526583 0.36656296 0.6030286 0.40652424
0.043128796 0.47870997 0.5404097 0.19162302 -0.6722394 -0.07050011 0.25671294 0.6048607
0.51922405 -0.14068344 0.8328266 0.49891394 0.086001664 0.51709217 0.44428957 0.38031593
-0.6487128 -1.13937 -0.10322882 0.45867693 -1.011686 0.36840433 -0.11987845 -0.34728464
-0.13116938 0.1481839 -0.39235288 0.17894037 0.70261884 0.3521143 0.17675152 -0.83462816
-0.50042707 0.2475352 0.5829949 -0.056147587 0.33800727 0.2598403 0.1684301 -0.05201317
0.53659743 -1.1210914 0.2956116 -0.17964451 -0.5323202 0.60664827 0.5274437 0.39231881
0.26855755 0.4314895 0.45183876 0.27535892 -0.89341265 -0.25358334 0.42246768 0.49343267
0.5321181 0.19619702 0.6056732 0.44538575 -0.014935469 0.56650376 0.6136906 0.59344596
0.57189023 -1.010245 0.17024602 -0.19992135 -0.8807687 0.5403236 0.68241876 0.38002497
-0.02348418 0.6221991 0.7027389 0.21874656 -0.81590164 -0.11068528 0.5245722 0.6935748
0.63273805 0.11787254 0.89186853 0.56694484 0.19485411 0.622686 0.56722134 0.5170901
0.44132447 -1.0520335 0.3562257 -0.07520391 -0.51934355 0.43634164 0.45007864 0.30263302
0.20923063 0.38909158 0.7449919 0.43337303 -0.6776442 -0.14535424 0.24091017 0.6525747
0.4982822 0.22382358 1.1544838 0.4649133 0.051105194 0.37256497 0.27201974 0.29375196
0.5400509 -0.9860699 0.46519834 0.09855768 -0.67598796 0.26871392 0.6631968 0.7671565
0.04943451 0.49991673 0.7045848 0.09617369 -0.74050564 -0.3573564 0.38648036 0.42488176
00000000: efee 1d3e c280 2b3f 6850 fb3b 7f9b 42bf
00000010: 17e0 0d3f 34e1 b9be 6220 83bb 4b7d 3abd
00000020: 38fa 323e ea38 1dbf fb08 86be f490 44be
00000030: 5130 db3e 547b 91bc df82 95bd a20e 9e3e
00000040: 3d8f 01be 66de 8d3d 1851 dfbe f297 173c
00000050: c4d8 1abf f003 c2be 9ea8 debe b842 e1be
00000060: ed4c ac3e 7126 71bf 262a 8d3d e5bc 883e
00000070: 82c8 babf a4d4 ef3e f54c c73e b635 bd3e
00000080: 7d90 333e 4e6d 773f 393c 2d3f 48c4 f53e
00000090: 470a f4be 478d c7be 4525 c33e f754 2c3e
000000a0: 099a e13e b819 dbbd a369 ea3e 52c0 c1bd
000000b0: 027c 033f 9a08 253f ed28 0c3f c6f8 173f
000000c0: 1258 f0be 90df a63c 64d6 e9be 608a 773f
000000d0: b63e 7fbf 19f6 083f 8481 15bf d597 e2bc
000000e0: 41a5 62bf ca06 ea3e 7970 e83e 091a 9a3e
000000f0: da2f 64be 6c90 5fbf 40c1 a93e 5637 8ebf
00000100: 5405 38bc 7113 193e 8528 c5be 21fb 87bf
00000110: 568c 213f 5863 2abf 65ac 10bf f444 d43e
00000120: c780 cd3e 735a 65bf 70df ab3e 1f29 133c
00000130: 8291 82bf 1258 8d3e 386b ac3e 9ed7 2b3f
00000140: d1bb 6e3d eb8e 293f 92b7 263f 9c9d fd3e
00000150: 6930 1fbf 04ac a7be 2ed8 5f3e 1d9e cf3d
00000160: c08c bc3e c9b0 bdbd b0e2 173e b70a c73e
00000170: 39d4 cf3d 6670 133f 8ce4 e33e a606 0d3f
00000180: b1f7 8fbd 63d6 123d c0ee cabd 6c0f 4cbd
00000190: 52ee fc3c 06ec 243e 4ef3 933d a39c dcbd
000001a0: 9f98 43bc b509 46be 376b 9a3c 7525 75bd
000001b0: 1a14 c4bb 450d ef3d 7428 61bd b231 ee3d
000001c0: e010 a2bd 053a dabd 1a80 07be d76d a0bd
000001d0: 7657 763d c36a 48be 60a3 a5bd 84c6 243e
000001e0: c841 f63e d84e 4bbf aa1e ed3e 9a7e 8ebe
000001f0: 0b56 f3be 24ae bb3e 1560 1a3f f223 d03e
00000200: d2a7 303d 7919 f53e 4a58 0a3f d338 443e
00000210: e217 2cbf 5d62 90bd e16f 833e 27d8 1a3f
00000220: deeb 043f 520f 10be 2034 553f a671 ff3e
00000230: a421 b03d 2760 043f ec79 e33e c5b8 c23e
00000240: 0b12 26bf e0d6 91bf a269 d3bd b4d7 ea3e
00000250: ed7e 81bf 7e9f bc3e d582 f5bd 4bcf b1be
00000260: 4451 06be 85bd 173e 7ae2 c8be 253c 373e
00000270: d4de 333f 5348 b43e 5afe 343e 31aa 55bf
00000280: fd1b 00bf de79 7d3e 273f 153f 03fb 65bd
00000290: 4a0f ad3e ca09 853e f178 2c3e c30b 55bd
000002a0: 735e 093f ec7f 8fbf 675a 973e bbf4 37be
000002b0: 2346 08bf 4d4d 1b3f 8d06 073f 03de c83e
000002c0: 6080 893e 31ec dc3e 6957 e73e d8fb 8c3e
000002d0: b1b6 64bf add5 81be af4d d83e 35a3 fc3e
000002e0: e438 083f dfe7 483e 660d 1b3f 9a09 e43e
000002f0: e6b3 74bc 6406 113f d41a 1d3f 13ec 173f
00000300: 6667 123f b54f 81bf f954 2e3e 2fb8 4cbe
00000310: 0f7a 61bf a652 0a3f ffb2 2e3f a292 c23e
00000320: e561 c0bc 7148 1f3f b2e6 333f 19ff 5f3e
00000330: eede 50bf f7ae e2bd 5d4a 063f 1e8e 313f
00000340: 1ffb 213f 2967 f13d 7f51 643f 4c23 113f
00000350: d687 473e 5a68 1f3f 6b35 113f 0460 043f
00000360: 48f5 e13e 09a9 86bf 3763 b63e 8204 9abd
00000370: b3f3 04bf 2c68 df3e b570 e63e b7f2 9a3e
00000380: 8e40 563e 0337 c73e cab7 3e3f 12e3 dd3e
00000390: 177a 2dbf bed7 14be 28b1 763e 230f 273f
000003a0: d81e ff3e 0232 653e 20c6 933f 1e09 ee3e
000003b0: ae53 513d d6c0 be3e 2c46 8b3e a866 963e
000003c0: c740 0a3f 146f 7cbf 7a2e ee3e 9cd8 c93d
000003d0: 8c0d 2dbf df94 893e 44c7 293f 5e64 443f
000003e0: d77b 4a3d 16f5 ff3e ab5f 343f b6f6 c43d
000003f0: c791 3dbf 6bf7 b6be c1e0 c53e 1a8a d93e

2.bias f4 [24]
0.08613343 0.45971134 0.39195386 0.27007306 -0.20432143 0.24930133 -0.04881682 0.2090595
0.2085866 0.38549128 0.35584518 0.37532553 0.30318734 -0.30456138 0.23507725 0.3713229
0.20251565 0.16883288 0.3363911 0.3485076 -0.22312114 0.27659562 0.34962392 -0.19528674
00000000: b966 b03d 495f eb3e 2dae c83e 0447 8a3e
00000010: a339 51be d948 7f3e 25f4 47bd b213 563e
00000020: ba97 553e 1d5f c53e 5731 b63e ab2a c03e
00000030: 5f3b 9b3e 78ef 9bbe 17b8 703e 091e be3e
00000040: 4360 4f3e 87e2 2c3e 743b ac3e 976f b23e
00000050: de79 64be f19d 8d3e e801 b33e 3ff9 47be

4.weight f4 [2, 24]
-0.949982 0.57221144 -0.95638883 0.78061485 0.08228265 1.1477165 -0.85644543 1.1560217
1.1961594 1.1506798 1.0737811 0.57449406 0.7790378 -0.77843124 0.98365444 0.7337472
0.9345356 1.0068569 1.0542252 0.97064894 0.09297494 1.0319469 0.93098027 0.032723542
-0.034907054 1.3324698 -0.4427201 1.1423331 0.092792675 0.7754054 -0.3907306 0.92383474
1.0255927 0.7947401 0.807028 1.112651 -0.32847843 1.3874938 1.3867369 1.2130386
1.2217402 1.0933644 1.315121 0.95664275 -0.11306603 0.7251001 0.78745127 0.105502814
00000000: 0532 73bf 737c 123f e6d5 74bf 60d6 473f
00000010: ce83 a83d 60e8 923f 0240 5bbf 85f8 933f
00000020: c01b 993f 7a49 933f a971 893f 0b12 133f
00000030: 056f 473f 4547 47bf c7d0 7b3f dbd6 3b3f
00000040: ba3d 6f3f b0e0 803f daf0 863f 737c 783f
00000050: a569 be3d d616 843f b954 6e3f 1f09 063d
00000060: b3fa 0ebd 5f8e aa3f 35ac e2be f937 923f
00000070: 160a be3d f880 463f d70d c8be 6f80 6c3f
00000080: 9f46 833f 1674 4b3f 6399 4e3f 596b 8e3f
00000090: 532e a8be 6699 b13f 9880 b13f d944 9b3f
000000a0: fc61 9c3f 5df3 8b3f e355 a83f 8ae6 743f
000000b0: 2a8f e7bd 29a0 393f 6896 493f dc11 d83d

4.bias f4 [2]
0.33630383 0.04869008
00000000: 0430 ac3e 406f 473d
