qlearning_agent_policy_20250604_094253.pth (torch, 2952 bytes, 3 tensors)

0.weight f4 [24, 5]
00000000: 83fc 2840 1506 0940 e8ec 11c0 a554 20c0
00000010: 03a6 3540 292d 3540 ba2d 2d40 80c0 11c0
00000020: 505e 33c0 8cf2 0540 2a30 1240 e4a6 1540
00000030: 9d99 23c0 5bbd dfbf b62c 2340 6228 3040
00000040: 457d 1f40 7f04 20c0 d8bb 28c0 b713 3740
00000050: 080c 2240 efb5 2b40 2c0c 1dc0 d1d3 38c0
00000060: 9782 3d40 4f1f 3740 fd6d 4140 2ef8 2cc0
00000070: 3083 31c0 ea46 2440 f20b 1a40 82da 4340
00000080: a0d7 41c0 e126 4ac0 3bd8 3640 1ac7 0940
00000090: e7cf 2140 8c15 26c0 ed19 46c0 cdba 1040
000000a0: f553 7bbd da52 0cbe 4bb1 023f 35d9 2dbe
000000b0: e077 d8be 0f1d 2b40 b5b9 3140 8f68 3bc0
000000c0: c30b 3bc0 ed06 4240 b168 0a40 a31b f33f
000000d0: c70f 46c0 0338 08c0 fff5 2040 577f 1a3d
000000e0: 61f8 8f3e f8e8 793e a1f2 443e 3381 c43d
000000f0: d51c 2540 2949 2940 c3ee f8bf 9782 1dc0
00000100: 31b3 1240 cacb 1540 127d af3f d2b9 1ec0
00000110: 615a c5bf fee8 1e40 e243 1140 806a 3b40
00000120: 4b6b 42c0 750f 41c0 1578 3840 0d54 fb3f
00000130: ee6d 1e40 0255 07c0 7c8e 23c0 6f78 1d40
00000140: 626b 0e40 e619 1b40 411e 3bc0 fbf0 3ac0
00000150: f4e1 1340 74ba 1040 120c d83f c76b 20c0
00000160: 2ee1 febf cd2f 1040 5354 1640 4048 3640
00000170: 4a72 29c0 cedf 37c0 6386 2b40 307f 1d40
00000180: 17ab 1940 b81e 41c0 0d81 45c0 9de3 2d40
00000190: 260d 2c40 a3ac 4a40 9fd8 37c0 0fe3 21c0
000001a0: 7331 4040 cfb1 2140 b559 2540 bf94 34c0
000001b0: e2b4 44c0 284d 1c40 cec1 2740 749c 1740
000001c0: dd34 1dc0 5311 0ec0 da49 3d40 52d3 3640
000001d0: 3817 4240 a198 10c0 5d5b 25c0 664e 4440
2.640412 2.1409962 -2.2800846 -2.5051663 2.8382576 2.8308814 2.705916 -2.2773743
-2.8026314 2.092929 2.2841897 2.3383112 -2.5562508 -1.7479662 2.549604 2.7524648
2.4920208 -2.5002744 -2.636465 2.8605783 2.5319843 2.6829793 -2.453868 -2.8879282
2.9610956 2.861286 3.0223382 -2.7026477 -2.773632 2.5668283 2.406979 3.0602117
-3.0287857 -3.158623 2.8569477 2.1527772 2.5283144 -2.595065 -3.0953324 2.2614014
-0.061359365 -0.1370348 0.5105178 -0.16977389 -0.42278957 2.6736486 2.7769597 -2.9282568
-2.9225929 3.0316727 2.1626399 1.8992809 -3.094713 -2.1284187 2.5150144 0.037719097
0.28119186 0.24405277 0.1923318 0.09594955 2.5798848 2.6450903 -1.9447864 -2.4610956
2.292187 2.3405633 1.3710043 -2.4800916 -1.5418206 2.4829707 2.2697682 2.9283752
-3.0377986 -3.0165684 2.8823292 1.9635025 2.4754596 -2.1145635 -2.5555716 2.4604757
2.2253041 2.4234557 -2.9237216 -2.9209583 2.310666 2.2613802 1.6878684 -2.5065782
-1.9912469 2.2529175 2.3488967 2.8481598 -2.6476007 -2.873035 2.6800773 2.460888
2.4010675 -3.0175 -3.0860016 2.7170174 2.6883025 3.166787 -2.8725965 -2.5294836
3.0030181 2.5264776 2.5836003 -2.8215787 -3.0735402 2.4422092 2.621204 2.3689241
-2.4563515 -2.2198074 2.9576325 2.856648 3.0326672 -2.2593157 -2.5837014 3.067285

0.bias f4 [24]
00000000: a63e 3040 9363 2740 8773 2940 5d90 3a40
00000010: b8cc 1b40 39e1 1240 6410 1a40 a15c 3440
00000020: 85f9 18be 3529 3440 68d8 2c40 d88b eebe
00000030: 0a94 2f40 0081 2b40 e24c 3e40 a883 ef3f
00000040: 836c 1a40 d5c3 2540 4ced 1840 c34a 1640
00000050: 9766 3540 15f7 2f40 88de 2b40 4ddb 3d40
2.7538238 2.6154525 2.6476762 2.9150612 2.43437 2.2949965 2.4072504 2.8181536
-0.14938934 2.815015 2.7007084 -0.46591067 2.7434106 2.6797485 2.9734426 1.8712053
2.412873 2.5900776 2.3894835 2.348313 2.8343866 2.7494557 2.6854572 2.96651

2.weight f4 [1, 24]
00000000: 09c4 1e40 5b1f 2540 0d89 4240 bdb5 3440
00000010: 484c 3840 9f29 3940 1960 3440 fc4d 2a40
00000020: c657 02bd 7ab0 2440 4a6c 3a40 d575 bfbc
00000030: 203b 2240 f160 3a40 f09e 2840 1d1b 1b40
00000040: c13d 2e40 2c06 2f40 6464 4140 76e1 3440
00000050: 9d67 3340 1f6f 3640 7eaa 3640 b0d6 3340
2.480715 2.5800388 3.039615 2.8235924 2.8796558 2.8931653 2.8183653 2.6610098
-0.03182199 2.5732713 2.9128594 -0.023371616 2.5348587 2.9121668 2.6347008 2.4235299
2.7225192 2.7347517 3.0217524 2.826261 2.803199 2.8505323 2.854156 2.8099785
