qlearning_agent_policy_20250605_091302.pth (torch, 6014 bytes, 6 tensors)

0.weight f4 [24, 4]
5.6622143 6.0139112 -5.993045 -6.3100376 2.4898314 3.2884724 -2.3564775 -2.9795034
0.44509056 -0.19807144 0.3879983 -0.11414992 -0.36220837 0.15646757 0.13389848 -0.009141232
4.3353553 4.6513395 -4.7283797 -4.7658124 5.8467774 5.4356313 -5.9477296 -5.9562044
-0.100588985 0.1417944 0.31363076 0.4086214 5.779937 6.316779 -5.748852 -5.8735833
6.2339945 6.222846 -5.851079 -6.1693616 5.6310396 6.2857623 -6.1742005 -5.956082
5.9767156 6.140638 -6.2446227 -5.8025064 5.772886 5.550634 -6.3948255 -6.387081
5.3241005 5.545503 -4.9341063 -5.028763 5.8070283 5.74155 -6.0878677 -5.5868917
0.3263962 -0.22881764 -0.10650534 -0.13485774 5.7473006 5.8432646 -6.2984877 -6.1588707
3.373169 3.991045 -4.201332 -4.0840054 5.510388 5.7390575 -5.539122 -5.1334453
6.058539 5.9475293 -5.554406 -6.371259 5.6398706 5.24667 -5.5175953 -5.103846
-0.37872538 -0.14926852 0.07487978 -0.037517775 5.678489 6.23812 -5.470256 -5.980893
6.204394 5.903105 -5.7245054 -5.6124353 -0.35023323 -0.25662887 -0.22690065 0.0056637577
00000000: dc30 b540 f671 c040 06c7 bfc0 d4eb c9c0
00000010: 6659 1f40 5576 5240 87d0 16c0 2fb0 3ec0
00000020: e9e2 e33e 3dd3 4abe b7a7 c63e 6fc7 e9bd
00000030: 6073 b9be 0939 203e af1c 093e 1bc5 15bc
00000040: 3bbb 8a40 c6d7 9440 e34e 97c0 8981 98c0
00000050: cd18 bb40 b1f0 ad40 cd53 bec0 3a99 bec0
00000060: 9901 cebd 8d32 113e 3694 a03e d336 d13e
00000070: 3ef5 b840 0e23 ca40 98f6 b7c0 65f4 bbc0
00000080: e27c c740 8e21 c740 0a3c bbc0 696b c5c0
00000090: 7a31 b440 f724 c940 0d93 c5c0 3998 bec0
000000a0: 4141 bf40 1b80 c440 f3d3 c7c0 22ae b9c0
000000b0: 7bbb b840 cb9e b140 69a2 ccc0 f862 ccc0
000000c0: 085f aa40 c374 b140 33e4 9dc0 a0eb a0c0
000000d0: 2dd3 b940 c7ba b740 d0cf c2c0 d1c7 b2c0
000000e0: 671d a73e 2c4f 6abe 791f dabd 2618 0abe
000000f0: e3e9 b740 06fc ba40 368d c9c0 7815 c5c0
00000100: 00e2 5740 486d 7f40 5071 86c0 2cb0 82c0
00000110: 1955 b040 5ca6 b740 7d40 b1c0 2f45 a4c0
00000120: 8ddf c140 2952 be40 b2bd b1c0 5be1 cbc0
00000130: d279 b440 b8e4 a740 2490 b0c0 b552 a3c0
00000140: 4be8 c1be d9d9 18be 925a 993d 3dac 19bd
00000150: 2fb6 b540 ae9e c740 560c afc0 7a63 bfc0
00000160: 658a c640 3ce6 bc40 262f b7c0 1299 b3c0
00000170: c551 b3be dc64 83be a558 68be 0b97 b93b

0.bias f4 [24]
6.301325 5.695437 -0.091372356 -0.47222704 5.894663 6.100052 -0.536666 5.7416353
5.810845 5.6724067 6.1082077 6.3319893 5.7978945 6.3197427 -0.35290384 5.940793
5.7456665 4.876221 6.2997375 6.207765 -0.16173556 6.010388 6.28641 -0.26848003
00000000: 74a4 c940 0541 b640 6e21 bbbd bec7 f1be
00000010: 14a1 bc40 a033 c340 f162 09bf 7abb b740
00000020: 71f2 b940 5b84 b540 7076 c340 a89f ca40
00000030: 5a88 b940 553b ca40 d0af b4be fa1a be40
00000040: 80dc b740 010a 9c40 7397 c940 03a6 c640
00000050: 029e 25be 1955 c040 452a c940 3776 89be

2.weight f4 [24, 24]
-0.019443814 -0.1349494 0.16589695 0.08557138 0.13652694 -0.0055906125 0.03298049 0.16477458
-0.08170607 -0.18362984 -0.12406116 -0.15569916 0.18185122 -0.15829067 0.13072377 0.019797359
-0.1443361 -0.04754287 -0.15883808 0.015530866 -0.11345887 0.10879067 -0.18655156 0.027181307
5.6721573 6.2528987 -0.17074664 0.13151118 6.1175137 5.7745023 -0.4395578 6.1259604
5.8571815 6.048359 5.971937 5.9230294 5.8157115 5.7348247 -0.051828753 5.913025
6.2260585 5.502078 5.9700165 6.1025286 -0.069571696 6.013068 5.8449764 0.022002978
5.9751487 6.0116634 -0.066488065 -0.025071839 6.025582 5.8865647 -0.40439308 6.0887904
5.8077536 6.0756674 5.970686 5.9161973 5.888989 5.9228306 0.16664162 5.9538026
6.0702677 5.4992204 5.9650345 5.9522457 0.028293725 5.7232294 5.728125 -0.12500288
-0.14633924 -0.041178785 -0.15605693 -0.18801042 -0.24040394 -0.077448644 -0.06794224 -0.1617629
0.16157609 -0.19467753 -0.034862187 -0.16004866 -0.0135912765 -0.127991 0.17711312 -0.018572548
-0.26670417 -0.011293139 -0.0028737925 0.07097532 0.06835997 0.13171552 -0.009023396 -0.02299536
6.004705 6.3047986 0.10142521 0.18894593 6.1185884 6.0945034 -0.52140516 5.955243
5.89767 5.8336587 5.718782 5.804484 5.9475307 5.8896804 -0.17054805 5.7075253
6.0022573 5.322339 5.953159 5.9190536 0.030591687 5.776299 5.8334107 0.005399422
3.6103504 4.109478 0.09370538 0.16980918 3.8402545 3.6479127 0.17282014 3.843136
3.712768 3.6923838 3.9227679 3.587834 3.8015306 3.8252816 -0.11729096 3.7734325
3.698819 3.834711 3.8415935 3.6625109 0.055389203 3.760475 3.7451427 -0.19859967
5.8881435 6.0139766 0.13805921 -0.12451162 6.016038 5.8518386 -0.12828153 5.7629766
5.770229 5.6945386 6.013488 5.881312 5.850165 5.8899727 0.029800493 5.750018
6.1233664 5.3369303 5.7408943 6.072257 -0.03750228 5.6385417 5.835858 -0.11341174
5.774036 6.3353405 0.023440884 0.03337099 5.8532805 6.100517 -0.48259303 5.9556584
5.7165885 5.713541 5.7108183 5.899728 5.9831576 6.0493007 -0.024949146 5.913211
6.269026 5.1885147 5.9934797 5.910096 -0.013064129 5.7828517 6.0466113 -0.07736394
-0.019253882 0.09712646 -0.063348494 0.14395742 -0.1329927 -0.07082798 0.34199882 0.0007514711
-0.123792544 0.004236005 0.0030844733 0.008164063 -0.31735748 -0.21848285 -0.11286694 -0.12514508
-0.026097838 0.10061397 0.018903542 -0.31525284 -0.14225423 0.10576859 -0.2703886 -0.015751464
0.15910704 -0.13331059 0.12662025 -0.1212921 0.003777411 -0.051726136 -0.08697866 0.008082829
-0.049392078 -0.11200286 0.0044666305 0.11437883 0.116601855 -0.13409437 0.032699436 -0.19819508
-0.026793508 -0.10161525 -0.22187889 0.009280684 -0.10268138 -0.21515487 0.15531151 0.026861664
-0.08760035 -0.21999864 -0.019350091 0.10234802 -0.045253474 -0.07100374 0.17473304 0.18932472
-0.15075073 0.10118347 -0.12033712 0.16615146 0.1543364 -0.20808508 -0.122110166 -0.08424357
00000000: a248 9fbc 2d30 0abe e4e0 293e 0c40 af3d
00000010: b8cd 0b3e 7531 b7bb 8d16 073d abba 283e
00000020: 8355 a7bd 7609 3cbe c713 febd 9a6f 1fbe
00000030: 3537 3a3e f316 22be 74dc 053e 122e a23c
00000040: d8cc 13be 50bc 42bd 73a6 22be 2c75 7e3c
00000050: 205d e8bd a5cd de3d 5f07 3fbe 55ab de3c
00000060: 5082 b540 bf17 c840 35d8 2ebe deaa 063e
00000070: acc2 c340 b9c8 b840 b80d e1be de07 c440
00000080: 086e bb40 288c c140 1c1a bf40 7589 bd40
00000090: 4f1a ba40 af83 b740 634a 54bd 8037 bd40
000000a0: df3b c740 0611 b040 600a bf40 ea47 c340
000000b0: 9b7b 8ebd 0e6b c040 0c0a bb40 973f b43c
000000c0: 6b34 bf40 8c5f c040 e52a 88bd 7563 cdbc
000000d0: 91d1 c040 bd5e bc40 9c0c cfbe 5fd7 c240
000000e0: 1ed9 b940 de6b c240 dc0f bf40 7d51 bd40
000000f0: 9972 bc40 d487 bd40 1aa4 2a3e 8d85 be40
00000100: a23f c240 9df9 af40 90e1 be40 cc78 be40
00000110: 3ec8 e73c b224 b740 cd4c b740 c100 00be
00000120: f4d9 15be 16ab 28bd 63cd 1fbe ce85 40be
00000130: 732c 76be 659d 9ebd 4d25 8bbd 2ca5 25be
00000140: 3474 253e 8c59 47be a7cb 0ebd cce3 23be
00000150: f2ad 5ebc 1310 03be 245d 353e 7525 98bc
00000160: 738d 88be dc06 39bc 3d56 3cbb 825b 913d
00000170: 5000 8c3d 6fe0 063e ded6 13bc c460 bcbc
00000180: 8b26 c040 e9c0 c940 05b8 cf3d 0b7b 413e
00000190: 7acb c340 2c06 c340 cf7a 05bf 5a91 be40
000001a0: b6b9 bc40 55ad ba40 4300 b740 55be b940
000001b0: 2c52 be40 4378 bc40 26a4 2ebe 0ca4 b640
000001c0: 7e12 c040 9a50 aa40 4780 be40 e368 bd40
000001d0: 6b9b fa3c 71d7 b840 4dab ba40 a2ed b03b
000001e0: fb0f 6740 d880 8340 9be8 bf3d 75e2 2d3e
000001f0: bbc6 7540 6777 6940 c3f7 303e f1f5 7540
00000200: fe9d 6d40 0450 6c40 a10e 7b40 129f 6540
00000210: 474c 7340 6ad1 7440 3e36 f0bd eb7f 7140
00000220: 73b9 6c40 e86b 7540 abdc 7540 9466 6a40
00000230: cadf 623d 9fab 7040 6bb0 6f40 b65d 4bbe
00000240: ac6b bc40 7f72 c040 655f 0d3e f3ff febd
00000250: 6283 c040 4342 bb40 3c5c 03be 4e6a b840
00000260: b7a5 b840 a939 b640 7e6e c040 b533 bc40
00000270: 8d34 bb40 a87a bc40 2a20 f43c 2600 b840
00000280: 9ef2 c340 22c8 aa40 68b5 b740 ee4f c240
00000290: fe9b 19bd ef6e b440 59bf ba40 6a44 e8bd
000002a0: e7c4 b840 1cbb ca40 1907 c03c 05b0 083d
000002b0: 134e bb40 6f37 c340 6f16 f7be c194 be40
000002c0: 4bee b640 54d5 b640 06bf b640 92ca bc40
000002d0: 0776 bf40 df93 c140 2762 ccbc 0639 bd40
000002e0: dc9b c840 5008 a640 96ca bf40 821f bd40
000002f0: ee0a 56bc 1f0d b940 d77d c140 fc70 9ebd
00000300: 51ba 9dbc 3dea c63d dbbc 81bd 9369 133e
00000310: 3d2f 08be 430e 91bd 781a af3e 5ffe 443a
00000320: f286 fdbd 2fce 8a3b e024 4a3b 90c2 053c
00000330: ae7c a2be f8b9 5fbe c826 e7bd 0826 00be
00000340: 22cb d5bc b20e ce3d 9adb 9a3c d268 a1be
00000350: 18ab 11be 349d d83d 6070 8abe 3709 81bc
00000360: f5ec 223e 9282 08be bda8 013e fe67 f8bd
00000370: 718e 773b c9de 53bd de21 b2bd d86d 043c
00000380: 594f 4abd c161 e5bd d05c 923b 733f ea3d
00000390: f4cc ee3d 0950 09be d8ef 053d a7f3 4abe
000003a0: 0f7e dbbc a81b d0bd 3834 63be 030e 183c
000003b0: 9e4a d2bd 8f51 5cbe fb09 1f3e fe0c dc3c
000003c0: d067 b3bd 5347 61be 1584 9ebc d79b d13d
000003d0: b55b 39bd 696a 91bd 38ed 323e 57de 413e
000003e0: 665e 1abe 4739 cf3d 4f73 f6bd 9c23 2a3e
000003f0: 5c0a 1e3e 4114 55be e514 fabd e587 acbd

2.bias f4 [24]
-0.03578768 5.4131436 5.5039797 0.08593763 5.384041 3.50741 5.545985 5.4116864
-0.37191936 -0.06070049 0.020832954 5.624646 5.379801 5.510084 -0.07945925 -0.1719168
-0.10623541 3.7978876 5.6458654 5.397571 4.0376234 5.4980187 -0.3403179 5.190332
00000000: 1a96 12bd 7938 ad40 9a20 b040 1100 b03d
00000010: 104a ac40 6879 6040 b678 b140 892c ad40
00000020: 376c bebe 14a1 78bd dfa9 aa3c 1afd b340
00000030: 5427 ac40 9c52 b040 88bb a2bd f50a 30be
00000040: f391 d9bd 9710 7340 eeaa b440 e7b8 ac40
00000050: 3634 8140 c5ef af40 263e aebe 3317 a640

4.weight f4 [2, 24]
-0.04719485 4.9739304 5.144075 -0.11105924 5.0087366 3.332675 5.0267615 4.876894
0.14222653 0.015320195 -0.16376872 4.7513256 5.1681256 4.780088 0.104489766 -0.11581604
0.0058462885 3.1730368 5.0908527 4.7533956 3.24355 5.032152 0.13693362 4.685624
-0.0007888278 6.0099683 5.8237014 -0.106978774 5.98802 3.9583447 5.8214507 6.029989
-0.6238611 -0.10314427 -0.12394591 6.0543294 6.147026 5.980174 -0.11336385 0.01785891
-0.089182384 3.9798577 5.841448 5.96223 4.421356 5.940964 -0.52307975 5.4896097
00000000: 634f 41bd 702a 9f40 439c a440 0773 e3bd
00000010: 9247 a040 8c4a 5540 3bdb a040 840f 9c40
00000020: d5a3 113e 8e01 7b3c fdb2 27be dc0a 9840
00000030: 4961 a540 7bf6 9840 bbfe d53d f630 edbd
00000040: 3992 bf3b 0913 4b40 44e8 a240 d11b 9840
00000050: 5396 4f40 6407 a140 5438 0c3e a2f0 9540
00000060: 56c9 4eba a951 c040 c35b ba40 b017 dbbd
00000070: dc9d bf40 8555 7d40 5349 ba40 abf5 c040
00000080: 5cb5 1fbf 4e3d d3bd 5ad7 fdbd 11bd c140
00000090: 70b4 c440 965d bf40 4e2b e8bd d94c 923c
000000a0: 41a5 b6bd fdb5 7e40 24ed ba40 97ca be40
000000b0: c07b 8d40 611c be40 8ee8 05bf e2aa af40

4.bias f4 [2]
-0.6058805 4.8656583
00000000: fc1a 1bbf 79b3 9b40
