qlearning_agent_policy_20250604_174740.pth (torch, 3016 bytes, 4 tensors)

0.weight f4 [24, 4]
0.60359716 0.28617126 0.3473059 -0.25193536 0.22823049 -0.12020134 0.6349417 -0.69269913
0.3088136 0.29073304 -0.37211615 0.31840357 -0.01542021 -0.37654638 0.21679331 -0.46921545
-0.18703243 0.091596514 -0.3526119 0.123209774 0.38877425 -0.43438816 0.03016815 -0.4611202
-0.33820638 -0.35559627 -0.47545385 0.00068262574 0.35668337 0.6912138 0.51937133 -0.83188903
0.40547204 -0.221335 0.8910496 0.30319613 0.40268964 -0.28151432 0.8617271 0.28161657
0.19483949 -0.44862142 0.9072983 -0.021242134 0.31932303 0.33012766 0.81268066 0.55569077
-0.0098642325 -0.26147085 0.485647 0.046433423 0.05966357 0.46642658 0.04600984 -0.9230253
0.41414776 -0.008825515 0.943861 0.32410827 0.6953464 -0.8031582 0.5138648 -0.32589346
0.49908692 -0.025841374 0.32941946 0.037195303 0.2364102 -0.048396684 0.58562446 0.35487387
0.87850386 0.25658333 0.47754747 -0.68937105 0.39807448 -0.43732506 0.3144051 -0.19814359
0.29844856 -0.33392945 -0.0041819196 0.19977021 0.17003596 -0.2588331 0.23476398 -0.48191032
1.4711198 -0.29720446 0.7760295 0.6489881 0.3984178 0.20903492 0.7352571 0.17268161
00000000: 5885 1a3f 0a85 923e 14d2 b13e acfd 80be
00000010: 41b5 693e 1f2c f6bd 8a8b 223f bb54 31bf
00000020: d11c 9e3e f6da 943e 0286 bebe cb05 a33e
00000030: 0ca5 7cbc b0ca c0be 11ff 5d3e 023d f0be
00000040: 6e85 3fbe f496 bb3d 8c89 b4be 6855 fc3d
00000050: 6b0d c73e 2068 debe 3223 f73c f217 ecbe
00000060: 6329 adbe b710 b6be b06e f3be 3df2 323a
00000070: 349f b63e 63f3 303f 85f5 043f aef6 54bf
00000080: 089a cf3e a4a5 62be d41b 643f 863c 9b3e
00000090: 562d ce3e a522 90be 269a 5c3f 0c30 903e
000000a0: 0184 473e b5b1 e5be b444 683f fc03 aebc
000000b0: 4f7e a33e 7e06 a93e d70b 503f c041 0e3f
000000c0: 979d 21bc 82df 85be b9a6 f83e f930 3e3d
000000d0: ca61 743d 77cf ee3e d074 3c3d 634b 6cbf
000000e0: 2d0b d43e e598 10bc e0a0 713f 85f1 a53e
000000f0: 3902 323f c79b 4dbf a58c 033f 82db a6be
00000100: 5288 ff3e 4ab1 d3bc aba9 a83e 1a5a 183d
00000110: 8415 723e 9a3b 46bd 7ceb 153f 07b2 b53e
00000120: a1e5 603f e45e 833e 1a81 f43e 9f7a 30bf
00000130: 6bd0 cb3e 12e9 dfbe b5f9 a03e 27e6 4abe
00000140: 40ce 983e cdf8 aabe 7c08 89bb 9090 4c3e
00000150: e81d 2e3e c685 84be f865 703e f3bc f6be
00000160: a74d bc3f 2f2b 98be dfa9 463f 1624 263f
00000170: 6bfd cb3e 400d 563e cf39 3c3f 73d3 303e

0.bias f4 [24]
1.9466165 1.8521405 -0.25329742 2.100242 -0.48917106 1.9919192 -0.45488408 1.6083027
1.8837152 1.7871481 1.7542999 1.6887748 2.227366 1.7623738 1.7430123 1.9846264
2.0989106 1.8101071 2.2160504 -0.43557304 2.320203 2.3137658 1.7609472 1.954432
00000000: bb2a f93f f112 ed3f 33b0 81be 5d6a 0640
00000010: a174 fabe 35f7 fe3f 91e6 e8be dddc cd3f
00000020: 941d f13f 45c1 e43f e68c e03f c629 d83f
00000030: 2a8d 0e40 7795 e13f 071b df3f 3d08 fe3f
00000040: 8d54 0640 97b1 e73f c5d3 0d40 6e03 dfbe
00000050: 357e 1440 bd14 1440 b866 e13f d42a fa3f

2.weight f4 [2, 24]
1.8214906 1.7714372 -0.10854469 1.5497931 -0.14209014 1.6357944 -0.10547088 2.0556178
1.7196752 1.8621967 2.0294073 2.195511 1.7147628 1.8340094 1.9936403 1.4888492
1.5613463 1.8781986 1.6735528 -0.053468946 1.3732302 1.5394518 1.9894192 1.8616527
1.6208239 1.8788902 -0.17754774 1.8548956 0.1459041 1.5729586 -0.11055907 1.8869971
1.9447839 2.1171105 2.1165347 2.0327506 1.6116806 1.7952354 2.0420334 1.5155672
1.8128481 1.980689 1.5770967 -0.1433039 1.7692616 1.6229793 1.7775271 1.656993
00000000: 9b26 e93f 74be e23f ae4c debd 9f5f c63f
00000010: 1480 11be b661 d13f 1e01 d8bd 3e8f 0340
00000020: 511e dc3f 765c ee3f cfe1 0140 4183 0c40
00000030: 597d db3f d2c0 ea3f 9b2f ff3f 9c92 be3f
00000040: 32da c73f d068 f03f fa36 d63f 4102 5bbd
00000050: 02c6 af3f c20c c53f 4aa5 fe3f a34a ee3f
00000060: 2877 cf3f 797f f03f 13cf 35be 386d ed3f
00000070: e267 153e b556 c93f cb6c e2bd 1f89 f13f
00000080: aeee f83f bd7e 0740 4e75 0740 9618 0240
00000090: 8d4b ce3f 46ca e53f adb0 0240 1bfe c13f
000000a0: 680b e83f 3887 fd3f 4ede c93f 42be 12be
000000b0: 2a77 e23f c9bd cf3f 0286 e33f 5918 d43f

2.bias f4 [2]
1.3289293 1.3802835
00000000: 5b1a aa3f 21ad b03f
