qlearning_agent_policy_20250605_113408.pth (torch, 6014 bytes, 6 tensors)

0.weight f4 [24, 4]
00000000: 4b7f 47bf bfb5 77bf e2f4 78bf 750c 30bf
00000010: 9936 893f c214 cabe 4403 d1be 90e9 61bd
00000020: c707 1d3e c8a1 793c 9e93 edbf d6e6 33bf
00000030: d225 1cbf c5f8 9039 37b6 7f3e 9bd3 bbbe
00000040: 68c5 01c0 6eb6 7cbf 7822 a9bf a3ba babe
00000050: ccd6 6fbf 6f04 39bf 3ced c8be 186d 54bf
00000060: 400b b6bf 769a 32bf 2944 00bf 1ad4 9bbe
00000070: 4fe1 59bf c623 65bf 5f96 babe 3310 e8be
00000080: 524f 6abf 7938 b7be 7835 e23d fd65 3abe
00000090: e4a6 2abf 2ea6 5abf daff 03bf 81b5 20bf
000000a0: 8840 173f b7f4 5bbe 803d 34bf 647d 6abc
000000b0: 22c0 f4bf 3c86 26bf f4b5 d6be 7f30 90be
000000c0: ae3f bbbe b0c2 3c3f 4025 5440 36ff 583f
000000d0: d8b8 53bf b3b3 20bf 1ab7 43bd d1f9 41bf
000000e0: 8f89 b93e db4f b0bd 2a66 fa3f a696 003f
000000f0: 6f89 5d3d 74bd 243f 4a6e 13c0 bcbf ffbe
00000100: 992c 9fbf e3af 05bf 2444 d73e 3c8a 38bf
00000110: 1efe c7be e5ae 0b3f 212e 0f40 e2e4 0d3f
00000120: b22b e43e 4682 293f dc0f bdbf d174 15be
00000130: 96bd 9cbf f6ee 21bd 8e97 14bd 1ea6 12be
00000140: 83ac 983d ed09 203e ad95 e3be 83ae 923e
00000150: 36aa 643f f832 983e fdd4 f03d 2be4 0c3e
00000160: da55 8dbf f9df 0dbf f9e1 89bf 5917 6fbe
00000170: d704 93bf 636d 10bf ec37 5bbf 3561 7bbe
-0.7792861 -0.967617 -0.9724866 -0.6876901 1.0719787 -0.39468962 -0.40822804 -0.055154383
0.15334998 0.015236326 -1.8560674 -0.702741 -0.6099521 0.00027651168 0.24971853 -0.3668488
-2.0276737 -0.98715866 -1.3213644 -0.36470518 -0.9368713 -0.7227239 -0.39243495 -0.82978964
-1.4222183 -0.6976694 -0.50104004 -0.30435258 -0.8510942 -0.8950771 -0.3644285 -0.4532486
-0.91527283 -0.35785273 0.110453546 -0.18202968 -0.66660905 -0.8540982 -0.51562274 -0.62776953
0.5908284 -0.2148007 -0.7040634 -0.014312122 -1.9121134 -0.65048575 -0.41935694 -0.28162
-0.3657202 0.7373457 3.3147736 0.8476442 -0.82703924 -0.627742 -0.04778204 -0.75771815
0.3623776 -0.08608981 1.9562428 0.5022987 0.054086145 0.6435158 -2.3036065 -0.4995097
-1.2435485 -0.52221507 0.42044175 -0.7208593 -0.39061064 0.5456374 2.2371905 0.5542737
0.44564587 0.66214406 -1.4770465 -0.14595343 -1.2245357 -0.03953453 -0.036277346 -0.14321181
0.07454779 0.15628786 -0.4445013 0.28648767 0.8932222 0.29726386 0.11759374 0.13758914
-1.1041825 -0.5541988 -1.0772086 -0.2334875 -1.1485852 -0.5641691 -0.85632205 -0.245488

0.bias f4 [24]
00000000: cadd 353f 865e 603f 9589 28bf 75c6 763f
00000010: af7f 313f a0e5 733f 7728 883f 225f 9a3f
00000020: ea2a 7a3f a750 253f 867b 5c3f ec50 693f
00000030: f61d d83e c248 6b3f 6bf5 163e 65cb 6e3e
00000040: d2a5 5e3f 01ce 833d b979 0bbf c6c6 783f
00000050: aaf3 efbe 4865 743f e17c 673f fa3a 863f
0.7104155 0.8764423 -0.65834934 0.9639657 0.69335455 0.95272255 1.0637349 1.2060282
0.9772173 0.6457619 0.8612598 0.911391 0.42210358 0.91907895 0.14742057 0.23319776
0.8697177 0.064357765 -0.5448261 0.97178304 -0.46865588 0.9546704 0.90424925 1.0486748

2.weight f4 [24, 24]
00000000: 73bc 91bf 142d abbe b1cc d8bf ebaa 213f
00000010: c0f0 babe be5a bdbe 7f5e c13d c8ca ff3d
00000020: 2d6d 273f a219 37bf faa4 ab3d 8ec7 a13e
00000030: ef73 423f 5ae9 78be 320b 94bd 84dc f0bf
00000040: e2cc 3dbe daa9 163d 06e4 91bf 60c3 553f
00000050: 28c6 3abd deff 3d3f 7b3a a33e d578 9b3d
00000060: 8b0f e9bd 0be9 053e 8ab4 103e fe88 debd
00000070: c4c0 1dbe 16f4 763d bb08 45bb fc81 0bbd
00000080: 7cec 1ebe a22a 403c 7d79 70bd 9e00 313e
00000090: cf45 f6bc a767 55be 636b 22be 1697 7b3d
000000a0: 66b5 ff3d a68f c43d 12c0 5ebe 80e4 f6bd
000000b0: d5b3 ba3c 0443 d13d 5e46 1cbd f5d7 d43d
000000c0: ff81 313f e6f4 ab3f 5d4f 15c0 4db4 093f
000000d0: c213 ba3f 80d6 783f befe 823f 47c6 703f
000000e0: f79b 7a3f 4fad 203f 99e1 553f 0b08 9f3f
000000f0: a939 00c0 50a4 223f ef5e c2be 4c46 98bc
00000100: d059 0d3f 505f 1cc0 55eb d0bd d3fd 233f
00000110: 3654 90bd 7c5d 663f 48da 7c3f 0e08 573f
00000120: cbac 343e e245 3cbe 27ca cd3d c4b4 ffbd
00000130: 0df1 50bd 2b64 54bb 3f8c f2bc b676 2ebe
00000140: 2b66 5f3c 53be 2c3e 22e1 333e 547c e3bd
00000150: 6a8a c03c 7142 21bd e0eb c1bd 6ce0 d1bd
00000160: 1623 febd 25f0 d23d 9913 d2bd 8cdf 2cbc
00000170: 6dc3 423e 2f53 02be d4ee f0b7 8032 94bd
00000180: 2f67 f03e a590 703f 932b 99bf 32c4 1bbd
00000190: 99eb 7d3f 657c e63e b80d 313f 7047 573f
000001a0: 173d 253e e09e ab3e 858b 2e3f 08d7 0e3f
000001b0: 07f4 a5bf aad9 053f 8def f9be dc53 afbe
000001c0: 011e 833e 3dc4 d3bf 017b 4fbe 8d2e 953e
000001d0: ddf0 2e3d 0ec6 453f cc76 213f 7a53 ee3e
000001e0: b613 d2bf cc3c 0cbf a06d 523d 1215 983d
000001f0: 9448 0cbf 525d 5ebf 6c2b af3d 923a 2e3e
00000200: 9946 713f 8c20 7dbf 54d8 9abe f66f 8c3c
00000210: b2ec 0a40 c5e5 2bbf 9409 263f b3a8 a33e
00000220: 5a8a 76be 273e 1040 5899 68bf 80e6 3e3f
00000230: 577f b13d e9a2 bc3d 901e bc3e fb86 c53e
00000240: aa72 413f e148 b83f d52e 0bc0 d23c 8f3e
00000250: 8060 ae3f 71cf 7c3f 42c9 8f3f 562e 6a3f
00000260: 6dfb 613f d3d9 333f c199 103f 2f5d 883f
00000270: 22eb 16c0 5b19 383f 1bd8 6abe 9e37 92bb
00000280: 2d32 4f3f dff5 1fc0 76dd a4be 5621 263f
00000290: f5f7 bbba 8bcf 3f3f fad4 583f c832 673f
000002a0: 4262 593f f3ee be3f c401 0ec0 d6dc 073e
000002b0: f526 b93f b54d 5b3f 28aa 883f 124c 743f
000002c0: 6342 843f 4de9 0c3f f57f f93e 2ce3 953f
000002d0: 4a11 11c0 994e 3a3f bca9 c8be 26f4 99be
000002e0: 4669 a63e b54b 12c0 8d03 efbe 0b2e 193f
000002f0: 7759 673d 1404 2a3f feea 8f3f 1aa7 813f
00000300: 6c19 693f e3e3 c13f 6f03 fbbf d804 0a3f
00000310: 4447 c03f cac2 6b3f 8408 643f 48bf 6a3f
00000320: 381b 503f 2d50 4f3f 176f 4d3f 46d5 7c3f
00000330: 7aae 10c0 de53 5c3f de34 24be 03d3 b3bc
00000340: 4130 5c3f 41c3 0cc0 9e3a b7be fad9 423f
00000350: 3288 25be 98d7 8c3f 4465 6e3f 43cc 883f
00000360: b34d 633f 48b8 a83f bd4d 0fc0 39b7 1f3e
00000370: 3f14 b03f c53a 573f e6a0 823f 381e 4e3f
00000380: 85d9 833f 5b97 0c3f 374a 093f 2763 833f
00000390: ee07 02c0 b179 533f 103f b4be 2e9b 06be
000003a0: cb2f f33e fa02 19c0 f52f b6be 4d4c 253f
000003b0: 5917 a63b 8899 3a3f 05ac 673f a081 983f
000003c0: 4280 953f 99dd c03f be65 febf b82a 4e3f
000003d0: 9be4 9b3f ab2a 913f 986d 4c3f b2ce 4f3f
000003e0: f621 1b3f f36b 723f f859 aa3f a9e3 603f
000003f0: 2040 c4bf bb74 8a3f d6a1 b0bd e77f 5e3e
-1.1385635 -0.3343283 -1.6937467 0.63151425 -0.36511803 -0.36983293 0.09441852 0.12489849
0.65400964 -0.7152349 0.08381076 0.3159756 0.7595815 -0.24307767 -0.07228698 -1.8817296
-0.18535188 0.036783077 -1.1397712 0.83501244 -0.045599133 0.7421855 0.31880555 0.07591406
-0.11379918 0.1307718 0.1413137 -0.10865973 -0.15405566 0.060291372 -0.0030065018 -0.03405951
-0.15519899 0.011728914 -0.05870961 0.17285392 -0.030062584 -0.20840321 -0.15861277 0.061423384
0.12485771 0.09597711 -0.21752957 -0.12055302 0.022790829 0.1021786 -0.038153045 0.10392753
0.69338983 1.3434112 -2.332969 0.5379074 1.453728 0.972023 1.0233991 0.9405255
0.97894233 0.6276445 0.8354736 1.242433 -2.0035193 0.6353197 -0.37963054 -0.018588208
0.5521517 -2.4433174 -0.10201136 0.6405918 -0.07047312 0.89986396 0.9877057 0.83996665
0.1764404 -0.18386033 0.10048323 -0.1248565 -0.051011134 -0.0032408338 -0.02960789 -0.17037472
0.013635199 0.16869478 0.1756635 -0.11107698 0.023503501 -0.039370004 -0.09468818 -0.10247883
-0.12409036 0.1029971 -0.10257644 -0.010551345 0.19019862 -0.12727045 -2.8721443e-05 -0.072361946
0.46953723 0.9397071 -1.1966423 -0.038028903 0.9918762 0.4501678 0.6916156 0.8409338
0.16136585 0.3351965 0.6818164 0.5579686 -1.2965096 0.52285254 -0.48815575 -0.34243667
0.2560883 -1.6544262 -0.20261766 0.29137078 0.042710174 0.7725533 0.63071895 0.46548063
-1.6412265 -0.5478027 0.051374078 0.07425894 -0.54798245 -0.86861145 0.08553204 0.1701453
0.9424835 -0.9887779 -0.3024317 0.01714323 2.1706967 -0.67147475 0.64858365 0.31964645
-0.24076214 2.2537935 -0.90858984 0.74570465 0.08666866 0.0921076 0.36742067 0.38579544
0.7556559 1.4397241 -2.1747334 0.2797609 1.36232 0.9875403 1.1233294 0.91476953
0.8827427 0.7025425 0.5648461 1.0653437 -2.3581014 0.7191369 -0.22934 -0.0044621965
0.8093594 -2.4993818 -0.3220021 0.64894617 -0.0014340865 0.7492606 0.84699976 0.9031186
0.84915555 1.4916672 -2.2188578 0.13267836 1.4465014 0.85665447 1.0676928 0.95428574
1.033276 0.5504349 0.48730436 1.1709952 -2.2666802 0.7277618 -0.39191997 -0.30069083
0.32502192 -2.2858708 -0.46682397 0.5983588 0.056481805 0.6641247 1.1243589 1.012912
0.91054416 1.514767 -1.9610423 0.5391364 1.5021749 0.920941 0.89075494 0.9169812
0.8129153 0.80981714 0.80247635 0.9876293 -2.2606492 0.8606547 -0.16035792 -0.021951204
0.8601113 -2.1994174 -0.3578691 0.76113856 -0.16165236 1.1003294 0.9312327 1.0687336
0.88790435 1.3181238 -2.2391198 0.15597238 1.3756179 0.8407405 1.0205352 0.8051486
1.0300757 0.5491845 0.5362887 1.0264634 -2.031734 0.8260756 -0.35204363 -0.13145134
0.474974 -2.3908067 -0.35583463 0.6456955 0.005068701 0.7289052 0.90496856 1.1914558
1.1679766 1.5067626 -1.9874799 0.80533934 1.217914 1.1341146 0.79854727 0.81174767
0.60598695 0.9469597 1.3308706 0.8784738 -1.5332069 1.0816873 -0.08624618 0.21728478

2.bias f4 [24]
00000000: bdf3 523e 9b95 5fbe fe59 1e3f 7d6a 9d3d
00000010: e474 35be e53d d73e a753 0a3f 886c 0f3f
00000020: 13b5 1e3f c67a 203f 8891 303f e988 193f
00000030: 5b33 1d3f 583a 0a3f 9ab6 183f 3ad8 373e
00000040: a855 ac3e 4638 dd3e 269d 0b3f 916d c93e
00000050: 35ba 073e faf8 983e f6f6 053f 7645 0f3f
0.20600791 -0.21834414 0.6185607 0.07686327 -0.17720371 0.4203941 0.54033893 0.5602498
0.6199505 0.6268734 0.68972063 0.59974533 0.6140649 0.53995275 0.5965363 0.17953578
0.336591 0.43206996 0.54536664 0.39341405 0.13254626 0.29877454 0.5232996 0.55965364

4.weight f4 [2, 24]
00000000: 8cdb 94bf a60e e53c c186 cc3f c269 1fbe
00000010: 6f4a 983f 0757 80bf 1f86 cf3f 21f7 b53f
00000020: 9fa5 d23f 4c8b bf3f f6f0 c53f d805 da3f
00000030: f253 cb3f 8f05 ca3f 9823 d33f a720 0b3f
00000040: 8657 debf 283c d93f 6443 ae3f c4e8 893e
00000050: 9def b3bc ac2d c13f e71f c13f 08ea db3f
00000060: f87b 293f 2462 edbd 5680 cc3f 2c6b 9f3c
00000070: 5e03 7f3f dfe2 7cbf cdf8 d23f 8999 d73f
00000080: 628a bb3f 2a36 d33f 59d8 943f aa5f d43f
00000090: d718 c13f 3e89 b83f fec7 c63f ce20 b93f
000000a0: d52f 783d 5cfc b33f ebea e03f daaa 05be
000000b0: 1b13 40bd d6f4 d63f 26a3 f43f 5045 cf3f
-1.16295 0.027961086 1.5978624 -0.15567687 1.1897715 -1.0026559 1.6212806 1.4216043
1.6456794 1.4964385 1.546416 1.7033033 1.5884993 1.5782946 1.6495237 0.543467
-1.737046 1.6971483 1.3614316 0.269354 -0.021964842 1.5092063 1.5087861 1.7180796
0.66204786 -0.115909845 1.5976665 0.019460283 0.9961451 -0.9878368 1.6482178 1.684373
1.4651606 1.6500905 1.1628524 1.6591694 1.5085706 1.4416883 1.5529783 1.4463136
0.06059249 1.4061389 1.7571691 -0.13053456 -0.04689322 1.6793468 1.9112289 1.6193027

4.bias f4 [2]
00000000: dcb1 4b3f 0800 1a3f
0.79568267 0.601563
