qlearning_agent_policy_20250605_112424.pth (torch, 6014 bytes, 6 tensors)

0.weight f4 [24, 4]
0	0x3fc52026	1.5400436
1	0x3ff2e9c2	1.8977587
2	0xc000be0d	-2.0115998
3	0xbfd0be7a	-1.6308129
4	0x40089016	2.1337943
5	0x3fba9a14	1.4578271
6	0xc00aed5d	-2.1707375
7	0xbfbfdbd3	-1.498896
8	0x3fde0c0b	1.7347425
9	0x3f8b8c66	1.0902221
10	0xbfbeb36c	-1.4898505
11	0xbff6240a	-1.9229748
12	0x4000835b	2.0080173
13	0x3f23524e	0.6379746
14	0xbfa2f9ec	-1.273252
15	0xbf3a6129	-0.72804505
16	0x400c3ac8	2.1910877
17	0x3fb02d63	1.3763851
18	0xc00b0f36	-2.1728034
19	0xbfca507c	-1.5805812
20	0x3fcf4c4a	1.6195157
21	0x3fd895e1	1.692074
22	0xc00515ee	-2.0794635
23	0xbf99804c	-1.1992278
24	0x3fc066b1	1.5031339
25	0x3ff37662	1.9020503
26	0xbfb7ada4	-1.4349866
27	0xbfc036de	-1.5016744
28	0xbd8b250c	-0.067941755
29	0xbecf6437	-0.40506145
30	0xbe2ded3b	-0.16985027
31	0xbe9f5067	-0.3111603
32	0x3eedc7a2	0.4644137
33	0xbebd5aed	-0.36983433
34	0xbe0e127e	-0.13874242
35	0xbd76c60c	-0.060247466
36	0x4005aa92	2.0885358
37	0x3f949b0c	1.1609817
38	0xbfd5575c	-1.6667285
39	0xbfe1b7b6	-1.7634189
40	0x3ff84454	1.9395852
41	0x3fd2f345	1.648049
42	0xbfb7085e	-1.4299428
43	0xbfe4344c	-1.782846
44	0x3f8357dc	1.0261188
45	0x3fd31b6b	1.6492742
46	0xbfdcc7e9	-1.7248508
47	0xbfa7ae7e	-1.3100126
48	0x3eae7366	0.34072417
49	0xbdf90fe0	-0.12161231
50	0xbb7479bd	-0.0037304007
51	0x3e2ec870	0.17068648
52	0x3f9ebe5f	1.2401847
53	0x3fe06b9f	1.7532843
54	0xbeeb7211	-0.45985463
55	0xbf440e6c	-0.76584506
56	0x3fefb70f	1.872774
57	0x3fff85b6	1.996268
58	0xbfb14d05	-1.385163
59	0xbfe3fbd3	-1.7811226
60	0x3fcfa8ff	1.6223449
61	0x3fd3a60c	1.6535048
62	0xbffbf246	-1.9683311
63	0xbfc57048	-1.542489
64	0x3e97a126	0.29615134
65	0xbef6bcb3	-0.4819084
66	0x3ee52442	0.44754225
67	0xbeaf92cd	-0.34291688
68	0x3fd70864	1.6799436
69	0x3fb78b31	1.4339353
70	0xbfa9b3ff	-1.3258055
71	0xbff7aa8a	-1.9348919
72	0x400d4567	2.207361
73	0x400225d3	2.0335586
74	0xc0123b00	-2.284851
75	0xbfb7750c	-1.4332595
76	0x3f9ad9c7	1.209771
77	0x3f942623	1.1574138
78	0xbfb025c1	-1.3761522
79	0xbfa292f9	-1.2701102
80	0x3fd02d63	1.6263851
81	0x3f8b7bf6	1.0897205
82	0xbfb47f76	-1.4101398
83	0xbff15cbf	-1.8856429
84	0x3fb78bf2	1.4339583
85	0x3f8895df	1.0670737
86	0xbfdc78f7	-1.7224416
87	0xbfbc8a30	-1.4729671
88	0x3fbb994c	1.4656157
89	0x3ff0076c	1.8752265
90	0xbfd76389	-1.6827251
91	0xbfd1b65c	-1.6383777
92	0x3fb256e5	1.3932768
93	0x3fe6e2a4	1.8037915
94	0xbfcfce55	-1.6234843
95	0xbfeef746	-1.8669212

0.bias f4 [24]
0	0x3f892b52	1.0716345
1	0x3ff05716	1.8776577
2	0x3fbd973c	1.4811778
3	0x3fbd1a2b	1.4773611
4	0x3fb7d3ac	1.4361472
5	0x3fdb91f0	1.7153912
6	0x3fae249e	1.3604925
7	0xbecb29f0	-0.39680433
8	0xbec8a8fe	-0.3919143
9	0x3fdb4f85	1.7133642
10	0x3fcfe730	1.6242428
11	0x3f94bb4a	1.1619656
12	0xbe9a4a70	-0.30134916
13	0x3fb05523	1.3775982
14	0x3fc868fc	1.5657039
15	0x3fcc9c3d	1.598518
16	0xbecf2179	-0.40455225
17	0x3fdfdd31	1.7489377
18	0x3ff5a546	1.9191062
19	0x3fd5ea46	1.671212
20	0x3fe8ce8c	1.8188033
21	0x3fe3484b	1.7756437
22	0x3fafabe1	1.3724328
23	0x3f7ce2b7	0.9878344

2.weight f4 [24, 24]
0	0x3e38f67e	0.1806278
1	0xbe1f97a0	-0.15585184
2	0x3e04caf9	0.12968053
3	0xbd5bd750	-0.053672135
4	0xbbd6f29c	-0.006559683
5	0xbd2e89c9	-0.04261187
6	0xbd8a06fb	-0.06739613
7	0x3e32d230	0.17462993
8	0xbda6acee	-0.081384525
9	0xbd8ea4da	-0.06965037
10	0xbe3c9351	-0.18415572
11	0xbe3d026d	-0.18457957
12	0xbe125e8c	-0.1429388
13	0x3dadd01e	0.08486961
14	0xbe283ece	-0.16430208
15	0xbd3902a6	-0.04516854
16	0x3e22b068	0.15887606
17	0xbd643c5b	-0.055721622
18	0x3de0d599	0.109782405
19	0x3d24549f	0.040119763
20	0xbe02e75c	-0.12783569
21	0xbdbb6d41	-0.09151698
22	0xbd715c7a	-0.058926083
23	0xbb52b046	-0.0032148524
24	0x3fd83860	1.6892204
25	0x3fbe6a7a	1.4876244
26	0x3fce0a1e	1.6096838
27	0x3fee579c	1.8620486
28	0x3fcce3a4	1.600697
29	0x3fc246b5	1.5177828
30	0x3fc33d2d	1.5253044
31	0x3cdecf2b	0.027198395
32	0x3e2b9be5	0.16758688
33	0x3fbc01b7	1.4688023
34	0x3fd2be60	1.6464348
35	0x3fbd59d1	1.4793035
36	0xbe02c58c	-0.1277067
37	0x4000f415	2.0148976
38	0x3fdc269e	1.7199285
39	0x3fc2ed40	1.5228653
40	0xbe30f87d	-0.17282291
41	0x3fc8a666	1.5675781
42	0x3fcf3b5e	1.6189992
43	0x3fec66b7	1.8468846
44	0x3fbb6a0e	1.464174
45	0x3fc16178	1.510787
46	0x3fbcf89e	1.4763372
47	0x3fce0e2b	1.6098074
48	0x3c520617	0.012818835
49	0xbe35c14c	-0.17749518
50	0xbb5248ea	-0.0032086917
51	0xbe8a0295	-0.26955095
52	0xbe1f0486	-0.1552907
53	0xbcf8ab85	-0.030355224
54	0xbe05857e	-0.13039204
55	0x3e2698cb	0.16269223
56	0x3d4ecd61	0.050488833
57	0x3bea66b1	0.007153355
58	0x3e38bc0e	0.18040487
59	0x3d8fd81b	0.07023641
60	0xbe2d1da4	-0.16905838
61	0x3db28a8e	0.087178335
62	0x3e00933a	0.12556162
63	0xbd1f023d	-0.038820494
64	0xbe20c516	-0.15700182
65	0xbdcf4b1b	-0.10121747
66	0xbe33b8af	-0.1755092
67	0xbe498e0f	-0.19683097
68	0xbde5270c	-0.11189088
69	0xbe6b407b	-0.22973816
70	0x3dbb3120	0.09140229
71	0xbdb9492a	-0.09047158
72	0x3fddee0f	1.7338275
73	0x3fd4edb2	1.6635039
74	0x3fcd8b03	1.6058048
75	0x3ff136f5	1.8844897
76	0x3fe1f500	1.7652893
77	0x3fb5a95c	1.4192309
78	0x3fc0dd08	1.5067453
79	0xbc6da69a	-0.014505053
80	0x3cb269d1	0.021778973
81	0x3fb3ba0f	1.4041156
82	0x3fd42e03	1.6576542
83	0x3fc2cb53	1.52183
84	0xba6a7287	-0.00089434575
85	0x3fee54d3	1.8619636
86	0x3fd16312	1.6358359
87	0x3fcd2f25	1.6030012
88	0xbdd5a5e0	-0.10432029
89	0x3fb1e0be	1.3896711
90	0x3fb9cf4a	1.4516385
91	0x3fd96fe8	1.6987276
92	0x3fcace95	1.5844294
93	0x3fb359aa	1.4011738
94	0x3fc6962f	1.5514582
95	0x3fc1a87d	1.5129544
96	0x3fd27691	1.6442434
97	0x3fa62333	1.2979492
98	0x3fcdbf01	1.6073915
99	0x3fca680a	1.5813
100	0x3fcd6949	1.6047755
101	0x3fcf96e2	1.6217921
102	0x3fb41698	1.4069395
103	0x3e40c5ce	0.18825457
104	0xbe13a718	-0.1441921
105	0x3fbf26a9	1.4933673
106	0x3fa40a11	1.2815572
107	0x3fb5eb33	1.4212402
108	0xbe1fa189	-0.15588965
109	0x3fe6ec89	1.8040935
110	0x3fb8ccd1	1.4437505
111	0x3fc0a2be	1.5049665
112	0xbd9f0083	-0.077637695
113	0x3fa6de6f	1.3036631
114	0x3fb23fbf	1.3925704
115	0x3fb8d8ec	1.4441199
116	0x3fad15f8	1.3522329
117	0x3fb00416	1.3751247
118	0x3faba121	1.3408548
119	0x3fb63932	1.4236205
120	0x3fcc68ea	1.5969517
121	0x3fe73108	1.8061838
122	0x3fce55e4	1.6119962
123	0x3fd3a449	1.6534511
124	0x3fea8b8a	1.8323834
125	0x3fe118f8	1.7585745
126	0x3fdf1ea3	1.7431225
127	0x3d085e1d	0.03329288
128	0x3e34f70e	0.17672369
129	0x3fc7ec76	1.5619037
130	0x3fbae2bb	1.4600443
131	0x3fbd04c0	1.4767075
132	0x3dabfd8e	0.08397971
133	0x3fdb6ee9	1.7143222
134	0x3fbb7684	1.4645543
135	0x3fd5410a	1.6660473
136	0x3c8a3abb	0.016873708
137	0x3fcf91e6	1.62164
138	0x3fe2035f	1.7657279
139	0x3fdf23a8	1.7432756
140	0x3fd0c0aa	1.6308796
141	0x3fc227a7	1.5168351
142	0x3fd21248	1.6411829
143	0x3fd21be9	1.6414768
144	0x3fe7e25d	1.8115956
145	0x3fd05b98	1.6277952
146	0x3fb3d173	1.4048294
147	0x3fef35e2	1.8688319
148	0x3fd7d1f7	1.6860951
149	0x3fd141a0	1.6348152
150	0x3fdc6129	1.7217151
151	0xbe1b395d	-0.15158601
152	0x3d1bf9f4	0.03808017
153	0x3fc67f92	1.5507681
154	0x3fc77bac	1.5584617
155	0x3fc29734	1.5202394
156	0x3cdd5dde	0.027022298
157	0x3fe405b6	1.7814243
158	0x3fb14d69	1.3851749
159	0x3fd51748	1.664773
160	0x3d0ac9cd	0.03388386
161	0x3fc7223f	1.5557326
162	0x3fc787ca	1.5588315
163	0x3fdb8438	1.7149725
164	0x3fbb0ef1	1.4613935
165	0x3fcda98c	1.6067367
166	0x3fdc6766	1.7219055
167	0x3fcc9985	1.598435
168	0x3fd75e6d	1.6825691
169	0x3fc720af	1.5556849
170	0x3fd38618	1.6525297
171	0x3ffaac11	1.958376
172	0x3fc3ada9	1.5287372
173	0x3fc213b7	1.5162266
174	0x3fc2f77a	1.5231774
175	0x3e1bd04d	0.15216179
176	0xbc95af29	-0.018272
177	0x3fe342d5	1.775477
178	0x3fbc7fbe	1.4726484
179	0x3fca802e	1.5820367
180	0xbbf8c332	-0.0075916285
181	0x3fece030	1.8505917
182	0x3fd8accd	1.6927735
183	0x3fd97bb8	1.6990881
184	0x3e13b59a	0.14424744
185	0x3fbeed34	1.4916139
186	0x3fd12975	1.6340777
187	0x3fe0876e	1.754133
188	0x3fb70d37	1.4300908
189	0x3fc3c818	1.5295439
190	0x3fe1394f	1.7595614
191	0x3fc1abee	1.5130594
192	0xbd6cddc3	-0.057828676
193	0xbe494bc6	-0.19657812
194	0x3d25dc94	0.040493563
195	0x3c28802c	0.010284465
196	0xbd7eed85	-0.062238235
197	0x3d4d2428	0.05008331
198	0x3e0a8ee4	0.13531071
199	0x3e3cfae8	0.18455088
200	0x3d8c67ec	0.06855759
201	0x3d8ce3ff	0.06879424
202	0x3e3206d3	0.17385416
203	0xbe444925	-0.19168527
204	0x3d80a011	0.0628053
205	0xbdff5162	-0.124666944
206	0xbe09e274	-0.13465291
207	0x3df03760	0.11729312
208	0x3e1300d3	0.14355783
209	0xbe34e707	-0.17666255
210	0xbe1bafd2	-0.15203789
211	0xbe1a4611	-0.1506579
212	0x3e07d1b7	0.13263594
213	0xbdab8996	-0.08375852
214	0x3e29d338	0.1658448
215	0xbe1f3c8e	-0.15550444
216	0x3fbb3472	1.462538
217	0x3fbda24f	1.4815158
218	0x3fd82997	1.6887692
219	0x3fd6e266	1.6787841
220	0x3fd5aaea	1.6692784
221	0x3fdc2df2	1.7201521
222	0x3fbb22ad	1.4619957
223	0xbd35af33	-0.044356536
224	0x3e1f00cb	0.15527646
225	0x3fcfb514	1.6227136
226	0x3fc452d8	1.5337782
227	0x3fd259a4	1.6433606
228	0xbe1acc15	-0.15116914
229	0x3ff8fb1d	1.9451634
230	0x3fbf01ca	1.4922421
231	0x3fdc00b0	1.718771
232	0x3e050eb3	0.12993889
233	0x3fae52ca	1.3619015
234	0x3fb26b4d	1.3938996
235	0x3fcfe728	1.6242418
236	0x3fcb5cd6	1.5887706
237	0x3fd1d95f	1.6394461
238	0x3fd0a4ac	1.6300254
239	0x3fdabf66	1.708966
240	0x3fcc8bac	1.5980124
241	0x3fdc98e4	1.7234159
242	0x3fdb5016	1.7133815
243	0x3ffcd619	1.9752837
244	0x3fe3e2d4	1.7803597
245	0x3fccdd94	1.600512
246	0x3fdf5195	1.7446772
247	0xbdf29f57	-0.11846798
248	0xbe4b62ac	-0.19861859
249	0x3fde3349	1.7359401
250	0x3fc251af	1.5181178
251	0x3fafd1f6	1.373595
252	0xbd38fc57	-0.045162525
253	0x3ff8c92d	1.9436394
254	0x3fbc57af	1.4714259
255	0x3fbe896b	1.4885687

2.bias f4 [24]
0	0xbe0ce8e6	-0.13760719
1	0x3fd42d21	1.6576272
2	0x3c1a1f3d	0.009406862
3	0x3fb74282	1.4317172
4	0x3fb5b428	1.4195604
5	0x3fdd6622	1.7296793
6	0x3f9e3a34	1.2361512
7	0x3fd6be94	1.677691
8	0xbd62b829	-0.05535141
9	0x3fc9893d	1.5745007
10	0x3fcf8188	1.6211405
11	0x3cba3e57	0.022734804
12	0x3ba7c5b9	0.005120006
13	0x3fb3aa6d	1.4036385
14	0x3d0eb99f	0.03484499
15	0x3fda2d7f	1.7045134
16	0x3fbe4754	1.4865518
17	0xbe143658	-0.14473855
18	0x3fd4c708	1.662324
19	0x3fa6eec9	1.3041621
20	0x3d63b305	0.05559065
21	0x3f9e4865	1.2365843
22	0xbd4372ed	-0.047717024
23	0x3fbb89e3	1.4651455

4.weight f4 [2, 24]
0	0xbddf641b	-0.109077655
1	0x3fa4d54e	1.2877595
2	0x3d513150	0.05107242
3	0x3f9aa048	1.2080164
4	0x3f8b69b3	1.0891632
5	0x3faa000f	1.3281268
6	0x3fa6c04d	1.3027436
7	0x3f86af96	1.0522335
8	0xbd60d233	-0.05488796
9	0x3fa1f349	1.265237
10	0x3fad84fe	1.3556211
11	0xb948a853	-0.00019136192
12	0x3d5e3349	0.054248128
13	0x3f8d952e	1.1061151
14	0xbdd3b0c0	-0.10336447
15	0x3f995e8a	1.1981976
16	0x3f8f02be	1.1172712
17	0xbc75507c	-0.014972802
18	0x3f9b7b08	1.2146921
19	0x3faab88b	1.3337568
20	0xbc3338ec	-0.010938864
21	0x3fa6f5ea	1.3043797
22	0xbe005a7a	-0.12534514
23	0x3f845b41	1.0340348
24	0x3cb6a419	0.022295045
25	0x3faf6dcb	1.3705381
26	0xbdb96a26	-0.09053449
27	0x3fc6487a	1.5490868
28	0x3fb808b4	1.4377656
29	0x3f9d9a3a	1.2312691
30	0x3fc2bb2f	1.5213374
31	0x3fb7b0e2	1.4350855
32	0x3c1c0c48	0.009524412
33	0x3fb92709	1.4465038
34	0x3fa24d2b	1.26798
35	0xbd3e7607	-0.04649928
36	0xbe024009	-0.1271974
37	0x3fd103e5	1.6329314
38	0xbe17cb34	-0.1482361
39	0x3faf005e	1.3671987
40	0x3fb8a499	1.4425231
41	0xbe307229	-0.17231049
42	0x3fa93e95	1.3222224
43	0x3fce5979	1.6121055
44	0xbd7526d5	-0.059851486
45	0x3fb64d6a	1.4242375
46	0xbe217b65	-0.15769728
47	0x3fc3571f	1.5260962

4.bias f4 [2]
0	0xbf8dbca9	-1.10732
1	0x3fb31393	1.3990349
