qlearning_agent_policy_20250605_105912.pth (torch, 6014 bytes, 6 tensors)

0.weight f4 [24, 4]
00000000: 6ef5 2e40 6a2f 4340 bb14 0ac0 21a5 44c0
00000010: e247 fc3f 1431 0940 68ec d8bf 71e6 09c0
00000020: a63c 1140 55bc 0040 7a26 fdbf f473 24c0
00000030: 2026 0c40 8d6b 3e40 19d8 09c0 1a0c 25c0
00000040: b83e f13f 43ba 2240 e3aa 2ec0 4e96 1ec0
00000050: 15c2 0a40 9d43 2340 a02a 4ac0 ed66 3fc0
00000060: 178a 1740 1dad 3c40 bd02 40c0 f54b 21c0
00000070: e1a5 2640 e9ba 3240 eee3 13c0 d365 3fc0
00000080: ed2b 3c40 6774 3840 ae15 3bc0 e289 1ec0
00000090: 05af 0140 9d8f 4340 aa5c 2ec0 f643 23c0
000000a0: 8e02 2740 bf6d 2e40 355b 46c0 9f63 39c0
000000b0: 6d46 dbbe f3db bbbe 3a62 00be 3c29 513c
000000c0: 7a6f 073e 5e51 813e c4a2 13bd 690a 7c3e
000000d0: d361 d73f a751 0340 c7d0 b6bf 8444 fcbf
000000e0: 6f64 1040 dfdb 3340 65ea 0dc0 ae16 3ec0
000000f0: 65e2 0d40 66e5 1840 8732 1ec0 5e89 43c0
00000100: b63d 2040 2d37 2c40 fede 0bc0 01a6 2dc0
00000110: 6fe0 0040 73b8 0540 0ff5 04c0 cbe9 09c0
00000120: 893b 3240 7310 1b40 d19f 2fc0 8ace 49c0
00000130: 7e3b fe3f 56a0 1440 8746 05c0 10bf 1fc0
00000140: 59ee 1040 679d 1440 71a4 3dc0 5aec 47c0
00000150: 2e15 0640 8243 3840 6aca 40c0 ae12 3dc0
00000160: bc40 fe3f 1fc9 2340 83d2 3fc0 1c0d 1ac0
00000170: 1d0e 1540 602d 2f40 3b35 25c0 9ffa 43c0
2.7337298 3.049769 -2.1575153 -3.0725787 1.9709437 2.1436205 -1.6947145 -2.15469
2.2693267 2.0114949 -1.9777367 -2.5695772 2.189827 2.9753144 -2.1538146 -2.5788636
1.8847265 2.5426185 -2.72918 -2.4779239 2.1680958 2.5510018 -3.1588516 -2.990657
2.3678033 2.948066 -3.0001671 -2.520261 2.6038744 2.792658 -2.3107867 -2.9905899
2.940181 2.8821046 -2.9231982 -2.4771657 2.0263073 3.0556405 -2.7244058 -2.551023
2.609531 2.7254484 -3.0993168 -2.8967054 -0.42827168 -0.36691245 -0.1253747 0.012766179
0.13226119 0.2525739 -0.036043897 0.24613346 1.6826729 2.0518587 -1.4282464 -1.9708409
2.25613 2.8102949 -2.2174313 -2.9701343 2.216943 2.3890014 -2.471834 -3.0552592
2.5037665 2.6908677 -2.1854854 -2.713257 2.0136983 2.089383 -2.0774572 -2.1548946
2.7848837 2.422879 -2.7441294 -3.1532311 1.9861906 2.3222861 -2.0824296 -2.4960365
2.2645476 2.322107 -2.9631617 -3.1238008 2.0950427 2.8791203 -3.0123544 -2.954265
1.9863505 2.5591505 -2.9972236 -2.4070501 2.3289864 2.7371445 -2.581374 -3.0621717

0.bias f4 [24]
00000000: 414a 3640 c548 4040 298d 2e40 eac2 2740
00000010: 7b5c 3640 58ed 1c40 6b56 2f40 ae30 3740
00000020: 75dc 2740 fb7c 1740 c7e4 1a40 9e1d b5be
00000030: cf55 b1be e90d 4440 4425 1240 eb75 2940
00000040: c5d3 3340 8872 3c40 fbcc 1740 cc0f 2b40
00000050: 67f8 1f40 9cda 0c40 9a59 2540 b0c6 3640
2.848282 3.0044415 2.7273657 2.6212716 2.8493946 2.4519863 2.7396495 2.8623462
2.6228306 2.3670032 2.4202135 -0.3537416 -0.3463578 3.063349 2.2835245 2.6478221
2.8098004 2.9444904 2.371886 2.6728392 2.4995363 2.2008429 2.5835938 2.855877

2.weight f4 [24, 24]
00000000: d9cd c5bd ca3c 7c3d f111 37be 8a82 f23c
00000010: cf18 af3d 96ce 9cbd 9f2d f73d fd3d cd3d
00000020: c346 97bd 78ed 1bbe 044d f0bd f0f9 37be
00000030: 58f1 64bd 97fb 5fbe 4e9f 30be ad42 84bd
00000040: 9289 5bbd a3ff dabd 3c25 22bd 1959 1fbe
00000050: bd36 793c 73c4 55be 4316 b53d ee51 08be
00000060: d313 783d 5015 343d a6d6 0d3d f1b9 eebd
00000070: 2614 d8bb a393 0ebd 3cbd d03b 0c0c 86bd
00000080: e5f7 08be 8f2f 19be 4fcb 4ebe a5d4 35be
00000090: 522c d2bc 881c 72bd 7645 0bbc 1d91 30bd
000000a0: 8c6d d43d 47a4 54be 70e0 0d3d 14a4 76be
000000b0: 989b ddbd 216f ef3c f2f8 bb3b 8ef6 bd3d
000000c0: 9b81 0d40 48c7 4c40 4e1f 4540 b8e7 2740
000000d0: b7b9 1940 f5af 1b40 2310 2540 2977 1240
000000e0: 0762 1940 b71c 2440 bad9 1740 1c9e 05be
000000f0: 3daf 2dbd b94a 4340 cb71 2b40 de70 1240
00000100: db76 2340 62c0 5540 26bb 1940 2cf2 3a40
00000110: 5b4f 1640 4d85 3140 fd15 3a40 9724 0f40
00000120: 9b6a 1940 df4e 4e40 f94c 4c40 a0ba 1a40
00000130: efd6 2540 1d6b 3140 f248 2d40 e64a 1440
00000140: 2459 3140 9401 2b40 57c6 1e40 6c8c ed3d
00000150: fa39 173d e2b6 5e40 6b38 2840 39a5 2640
00000160: ed9b 1a40 377e 5740 7bad 3740 6b66 3e40
00000170: e8a5 2c40 2a34 3d40 fb93 3f40 0a0c 2240
00000180: 3116 1340 e93f 4c40 78a1 4a40 b1ea 2240
00000190: b572 2840 92a8 1d40 c2fd 1b40 fbd9 1840
000001a0: 86de 1440 9cc3 2f40 b813 1d40 2aa5 213e
000001b0: 3cda 363c 2ec2 5740 1f4e 3040 9c8b 2740
000001c0: 8fa7 2240 a86e 5840 c614 3440 a278 3940
000001d0: 7a7b 2d40 9e09 2f40 e43f 2740 c19f 0f40
000001e0: b4dc 1340 2d7d 5340 72a5 4240 5ece 2a40
000001f0: 2f89 2940 6f60 1a40 3274 1b40 5e80 1e40
00000200: 9ba0 1c40 ae22 2940 c1e2 2f40 154d 3dbd
00000210: dbdc 3ebe 48b8 5040 ac75 2e40 ca03 1b40
00000220: 9683 1a40 03ee 4840 2bd8 2240 c29a 3a40
00000230: 564b 2740 3d5b 2240 7d19 2e40 6f55 1340
00000240: 9f10 1940 0c56 4a40 a239 5140 be31 2940
00000250: 5b14 2b40 e562 2440 f56b 2640 53bc 2e40
00000260: fbf2 2740 5755 2a40 b669 3940 7094 9dbd
00000270: cf35 253d bec8 4e40 b65a 3740 0cca 3640
00000280: 0a55 2140 327d 5340 806d 2840 0a1d 4140
00000290: 3e6f 2f40 04c6 4640 5a97 3b40 853b 2e40
000002a0: 38a1 2140 ce56 5140 06b3 5040 4cc6 2c40
000002b0: 931e 1440 5ed5 3140 930e 2640 dff4 1c40
000002c0: f633 2d40 5329 2e40 4427 1d40 55bb 44be
000002d0: 74d3 593c ab12 5e40 83e0 3240 cb25 2d40
000002e0: 3546 1d40 5529 5c40 ff71 2440 2e1f 3e40
000002f0: 0b5e 2540 8e3c 1f40 b3ab 3440 daa6 0f40
00000300: a2f3 08bd 8355 68be 285c cc3d 56fc 9cbd
00000310: 2104 2cbc cd2c 68be c125 8fbc 9441 2cbe
00000320: 1bd4 b73c d39c 933c e5e5 c9bc b272 3c3d
00000330: 7729 46be 1149 13be f488 063e 9286 453d
00000340: 9df3 e53d b825 613c 0892 5c3d 764c 5b3d
00000350: 4a45 82be 82a4 813d b4a3 1f3c d21b adbd
00000360: 93b3 31be 1d91 42be 883b 5cbe 097f d93d
00000370: 4581 29bd 1906 c6bd e127 083e a86e 303c
00000380: 385d f0bc b3f0 e3bd f19c 043e 1cea e9bd
00000390: 6d21 27be 9a97 d9bd dd86 e8bd 037f ab3b
000003a0: 7ec7 793d 6bb3 923d 37b2 0ebe b17f 4abe
000003b0: c407 abbb 98a7 f73c 8822 aebc e39c 09be
000003c0: 636f 2cbe 6844 4b3d 0ce3 93bd dfbb 37be
000003d0: 3468 033e b506 aabd 9869 19be d107 14be
000003e0: 4d99 3cbe 2eda 16be 8532 95bd 3135 3c3e
000003f0: 99d8 17bd 3a13 9b3c 6334 493e ff71 b43d
-0.09658403 0.06158141 -0.17877938 0.029603262 0.08549654 -0.07656591 0.120692484 0.10021589
-0.073865436 -0.15227306 -0.117334396 -0.17966437 -0.055894226 -0.21873318 -0.1724827 -0.0645803
-0.053597994 -0.1069329 -0.03958629 -0.15561332 0.0152108045 -0.2087572 0.08842137 -0.13312504
0.06056578 0.043965638 0.034628533 -0.11656559 -0.0065941988 -0.034808766 0.0063702147 -0.065452665
-0.13375814 -0.14959548 -0.20194744 -0.17756899 -0.0256559 -0.05910924 -0.0085004475 -0.04310714
0.10372457 -0.20765792 0.03463787 -0.24086028 -0.10820693 0.029227795 0.0057364637 0.09275542
2.2110355 3.1996632 3.0800357 2.623518 2.4019601 2.4326146 2.57911 2.288523
2.396608 2.5642526 2.372664 -0.13048595 -0.04240345 3.0514357 2.6788204 2.2881389
2.5541294 3.339867 2.4020476 2.921031 2.3485935 2.773761 2.907592 2.2366083
2.3971317 3.223564 3.192198 2.4176407 2.5912435 2.7721627 2.7075772 2.3170714
2.7710657 2.6719713 2.4808557 0.11599049 0.036920525 3.4799123 2.6284435 2.6038344
2.415767 3.3670785 2.8699634 2.975001 2.697626 2.9563088 2.993407 2.5319848
2.2982295 3.1914008 3.1661053 2.5455744 2.6320012 2.4634137 2.4373631 2.3883045
2.3260818 2.746314 2.4543285 0.15785661 0.01116043 3.3712268 2.7547681 2.617896
2.541477 3.381754 2.813768 2.8979878 2.7106614 2.734962 2.6132746 2.2441256
2.3103456 3.3045151 3.041348 2.6688457 2.648998 2.4121358 2.428967 2.476585
2.4473026 2.6427417 2.748215 -0.04621609 -0.18638937 3.2612476 2.7259321 2.4221063
2.4142814 3.139527 2.5444438 2.9156957 2.6139731 2.5368187 2.7203057 2.3020895
2.3916395 3.161502 3.2691426 2.643661 2.6731174 2.568536 2.6003392 2.7302444
2.6242054 2.6614587 2.897077 -0.07694328 0.04033452 3.2310023 2.8649116 2.856082
2.5208154 3.3045163 2.6316833 3.0173974 2.7411647 3.105836 2.9311128 2.7223828
2.525465 3.2709231 3.2609267 2.699603 2.314366 2.778648 2.5946395 2.4524457
2.7062964 2.7212722 2.4555216 -0.19212086 0.013295043 3.4698894 2.794953 2.7054317
2.45741 3.4400227 2.5694578 2.970653 2.583865 2.488071 2.8229797 2.2445588
-0.03343547 -0.2268887 0.09978515 -0.07665317 -0.010499031 -0.2267334 -0.017474057 -0.16821891
0.022440007 0.018019116 -0.024645755 0.04600782 -0.19351755 -0.14383341 0.13138181 0.04822404
0.11228106 0.013741903 0.053850204 0.053539716 -0.25443488 0.063302055 0.00974362 -0.08452572
-0.17353658 -0.19000669 -0.21507084 0.10619933 -0.041383047 -0.09669132 0.13296463 0.01076857
-0.029341325 -0.11129894 0.12950493 -0.11421606 -0.16321345 -0.10624619 -0.11353848 0.005233647
0.060981266 0.071631275 -0.13935171 -0.19775273 -0.0052194316 0.030231282 -0.0212567 -0.13438754
-0.16839366 0.049625784 -0.0722104 -0.17942761 0.12832719 -0.083020605 -0.14981687 -0.14456107
-0.18417855 -0.14731666 -0.072850265 0.18379666 -0.037071798 0.018930066 0.1964889 0.088108055

2.bias f4 [24]
00000000: 2998 023d 7c7e a939 4ccf c33f 1ce4 b03f
00000010: d182 b33f 39b0 c43f 6132 e93f 10c2 bc3f
00000020: 3da3 da3d 9e94 ac3d 2ca6 1fbe 37d8 9e3d
00000030: a71b b83d 82c3 d33f 9c02 a03f 4b2a 81bd
00000040: 8de1 b5bd 7825 e5bd 1c69 dc3c 53e3 8ebd
00000050: ab79 c33f 0b6c ecbd 2899 88bd b129 d73f
0.031883392 0.0003232843 1.5297637 1.3819613 1.4024297 1.5366279 1.82185 1.4746723
0.106756665 0.08426784 -0.15590733 0.077560835 0.08989649 1.6544039 1.2500796 -0.06306895
-0.08880911 -0.11188787 0.026905589 -0.069769524 1.5271505 -0.11544045 -0.06669837 1.6809598

4.weight f4 [2, 24]
00000000: 8bdf f8bd d0d5 bcbd 1320 1b40 cd41 1640
00000010: ef89 0140 9c68 0440 cb26 1a40 84b3 0040
00000020: bbb8 d3bd 6d6a 8fbd 095f 423e 4468 bc3c
00000030: 5d3f dd3d c1ee 1540 2892 1040 6f0f b43b
00000040: 53c4 89bc 2648 b53c ed2c 6f3c 17b5 02be
00000050: e385 1540 9e06 e03d 387c 6dbb 8462 1440
00000060: e976 ba3c 86bf 253c 329a 3d40 4ff3 3040
00000070: 9283 3940 b9ae 3840 2064 2a40 788b 3540
00000080: f358 0dbe 18b1 113c 00e1 42be c126 39bd
00000090: be63 9abd 7ab0 3040 9422 3b40 25a8 d9bd
000000a0: 900d 143c 5ae0 843d 0be1 08be 0952 d2bd
000000b0: 79dc 2f40 58da 9ebd 99d1 e1bd b6fd 2f40
-0.121520124 -0.09220469 2.4238327 2.3477662 2.0240438 2.0688848 2.4086177 2.0109568
-0.10337969 -0.07002721 0.18981566 0.022998936 0.10803101 2.3426974 2.2589207 0.005495004
-0.016817247 0.02212913 0.0145981135 -0.12764393 2.3362968 0.10938762 -0.003623737 2.318513
0.022761779 0.0101164635 2.9625363 2.7648504 2.8986554 2.8856642 2.6623611 2.8366375
-0.13803463 0.00889232 -0.19031143 -0.045202974 -0.075385556 2.7607713 2.9239855 -0.10627774
0.009036437 0.06488104 -0.13367097 -0.10269553 2.7478316 -0.077564895 -0.11026306 2.7498603

4.bias f4 [2]
00000000: d3d8 243e 7b00 6b3f
0.16098337 0.9179761
