qlearning_agent_policy_20250604_175906.pth (torch, 3016 bytes, 4 tensors)

0.weight f4 [24, 4]
000000 51 3a 5c c1 6a c7 63 c1 f0 e7 60 41 b2 1b 5d 41
       -13.764237 -14.236185 14.056625 13.819262
000010 0a 0d 7d bb bb c2 bd 3d b3 1a 0f be e1 8e 31 3e
       -0.0038612508 0.092656575 -0.13975029 0.1733966
000020 f6 0c 69 c1 7c 43 71 c1 6d ec 6f 41 97 b6 6e 41
       -14.565664 -15.078976 14.995221 14.919578
000030 ae 81 4e c1 22 d8 57 c1 75 91 4f 41 54 04 50 41
       -12.90666 -13.490267 12.973012 13.001057
000040 14 99 48 c1 a9 c5 52 c1 6e 71 51 41 51 21 51 41
       -12.537373 -13.173257 13.090193 13.070634
000050 91 c5 6c c1 6b bf 73 c1 f4 cf 66 41 f6 7a 71 41
       -14.798234 -15.234233 14.42577 15.09252
000060 8c 75 65 c1 7f fa 68 c1 73 46 6c 41 f8 a3 73 41
       -14.341198 -14.561156 14.7671995 15.227531
000070 bd 65 63 c1 98 4a 74 c1 ef 12 6f 41 2f 7e 67 41
       -14.212338 -15.268211 14.942122 14.468307
000080 da 97 65 c1 40 17 6f c1 f8 63 63 41 33 aa 70 41
       -14.349573 -14.943176 14.211906 15.041553
000090 32 e5 6c c1 87 91 6c c1 29 88 6a 41 3c 13 73 41
       -14.805956 -14.785529 14.658242 15.192196
0000a0 20 34 6f c1 5a 9c 6b c1 06 c4 6c 41 08 47 72 41
       -14.950226 -14.725672 14.797857 15.142342
0000b0 bb 25 47 c1 b3 f6 4b c1 d4 a1 4d 41 42 0b 52 41
       -12.446712 -12.747729 12.852009 13.1277485
0000c0 20 35 66 c1 fa 8e 69 c1 d0 b8 6a 41 b6 9f 70 41
       -14.38797 -14.597406 14.67012 15.038992
0000d0 26 2a 68 c1 ab bc 72 c1 f0 cc 71 41 dc 0a 74 41
       -14.51029 -15.1710615 15.112534 15.252651
0000e0 12 66 63 c1 95 75 66 c1 bf 07 6f 41 cf a7 71 41
       -14.2124195 -14.403707 14.939391 15.103469
0000f0 e1 ae 71 c1 68 b1 6e c1 d1 37 6c 41 66 c3 6c 41
       -15.105195 -14.918312 14.763627 14.797705
000100 d0 9b 67 c1 f9 0d 72 c1 01 fe 6e 41 63 3e 6a 41
       -14.47554 -15.128411 14.937013 14.640231
000110 e8 17 49 be 74 02 1c bb 56 c8 d4 bd 8e 1e 1e be
       -0.19638026 -0.0023805173 -0.103897735 -0.15441343
000120 18 26 93 3e 4a 41 ae be aa d2 01 3e c9 82 87 be
       0.2874 -0.34034187 0.12678018 -0.2646697
000130 d4 0a e8 be 19 52 2e 3e 01 4c 08 be 12 48 9e bd
       -0.4532076 0.17023505 -0.13310243 -0.0772859
000140 4a 04 77 be 30 74 4a be da 8a b2 3e 1a 22 65 be
       -0.2412273 -0.19770885 0.3487156 -0.2237629
000150 bb 72 73 c1 25 3d 6c c1 5e 39 6a 41 02 44 73 41
       -15.21551 -14.764928 14.639006 15.204103
000160 df ba 69 c1 12 33 6f c1 ec 01 6f 41 0f 7e 6f 41
       -14.608123 -14.949968 14.937969 14.968276
000170 59 7f 68 c1 9a e5 6d c1 da f7 66 41 6f 64 6f 41
       -14.531091 -14.868555 14.435511 14.96202

0.bias f4 [24]
000000 1e 85 70 41 62 c2 dc be 74 d1 66 41 35 71 68 41
       15.032499 -0.43117052 14.426136 14.527638
000010 a5 c6 69 41 c7 30 66 41 4a 70 68 41 7e 47 6e 41
       14.610997 14.386909 14.527414 14.892454
000020 bc 05 70 41 ef d8 6d 41 55 d0 67 41 cf e2 66 41
       15.0014 14.865462 14.488362 14.430373
000030 4d fe 6a 41 18 21 67 41 a9 96 6d 41 5f 6d 6b 41
       14.687085 14.44558 14.849282 14.714202
000040 0b 5d 6f 41 0a b8 df be 1d c9 9d be e3 97 9b be
       14.960216 -0.43695098 -0.308175 -0.30389318
000050 ef cb 6d be 80 ef 6e 41 5d ac 6f 41 cd 4c 65 41
       -0.23222326 14.933472 14.979581 14.33125

2.weight f4 [2, 24]
000000 4e ab 6d 41 f1 aa da 3d 19 4c 70 41 46 a6 75 41
       14.854322 0.10677136 15.018579 15.353094
000010 23 b9 74 41 b5 a6 6c 41 18 11 6e 41 7a 97 6c 41
       15.295199 14.7907 14.879173 14.786982
000020 69 38 6d 41 c2 dd 6d 41 1d ce 6f 41 f3 98 78 41
       14.826272 14.86664 14.987821 15.537341
000030 50 b0 6d 41 9e 28 6d 41 a8 71 6f 41 46 32 6d 41
       14.855545 14.822416 14.965248 14.824774
000040 57 2f 6d 41 15 04 2c 3c fb 11 22 3d 9f bb df bd
       14.824058 0.01049902 0.03956793 -0.10924458
000050 4e 00 83 3b fd 2c 6c 41 d0 bb 6b 41 ab 1d 6b 41
       0.003997839 14.760983 14.733353 14.694743
000060 13 cc 37 41 8d eb 23 3e 31 49 36 41 73 8a 34 41
       11.487323 0.16007824 11.392869 11.283801
000070 b3 3e 2e 41 ab aa 3a 41 60 8f 3a 41 33 a7 35 41
       10.890307 11.666667 11.660004 11.35332
000080 88 cf 33 41 64 f3 37 41 1e ff 38 41 e5 52 32 41
       11.238167 11.496922 11.562284 11.145238
000090 93 9b 34 41 df 92 37 41 af 7e 37 41 2c e3 34 41
       11.287982 11.473357 11.468429 11.305462
0000a0 e1 1a 37 41 53 76 4e bc 14 7b 93 3c 14 e2 b0 bd
       11.444062 -0.012601453 0.018003024 -0.08636871
0000b0 f6 bf 80 3d 71 7d 36 41 e9 86 37 41 11 29 38 41
       0.06286614 11.405625 11.470437 11.510026

2.bias f4 [2]
000000 44 60 55 41 06 69 04 41
       13.336002 8.2756405
