qlearning_agent_policy_20250605_112811.pth (torch, 6014 bytes, 6 tensors)

0.weight f4 [24, 4]
0	0x3fc4ce08	1.5375376
1	0x3fdbb907	1.7165841
2	0xbfda0ace	-1.7034547
3	0xbfa99f4e	-1.3251741
4	0x3ede4ac2	0.4341641
5	0xbe95ceb5	-0.29259267
6	0x3e47b363	0.19502024
7	0xbe48ed4f	-0.19621776
8	0xbe35ba01	-0.17746736
9	0xbec7e00b	-0.3903812
10	0xbe93601e	-0.2878427
11	0xbe8b0ea6	-0.27159613
12	0xbf8c3093	-1.0952324
13	0xbf6fd9a2	-0.93691456
14	0x3f87bc64	1.0604367
15	0x3f7fceb1	0.9992476
16	0x40064885	2.0981762
17	0x3fd22630	1.6417904
18	0xbfdedfe6	-1.7412078
19	0xbfda37e3	-1.7048305
20	0x400aa311	2.1662028
21	0x3ff21062	1.891125
22	0xbfd0d542	-1.6315081
23	0xbfc51e5c	-1.539989
24	0x3e1fd84a	0.15609851
25	0x3e569536	0.20955357
26	0x3e621fc2	0.22082427
27	0x3deeb163	0.116549276
28	0x3eaee397	0.34158012
29	0xbecf5999	-0.40498045
30	0xbea423a5	-0.32058445
31	0xbe83f083	-0.25769433
32	0x3b743d1a	0.0037267865
33	0xbddce601	-0.10786057
34	0xbbded67a	-0.00680047
35	0xbdd50362	-0.10401036
36	0xbe01da1c	-0.12680858
37	0xbeb383b6	-0.35061425
38	0x3ee6daed	0.45088902
39	0xbdf14b1f	-0.11781906
40	0x4001c574	2.0276766
41	0x3fed5d14	1.854403
42	0xbfac9a97	-1.3484677
43	0xbfbddfb3	-1.4833893
44	0x3fce5de2	1.6122401
45	0x3fb85dac	1.4403586
46	0xbf9de8b2	-1.2336638
47	0xbf6683ea	-0.90045035
48	0x3f474dbe	0.77853
49	0x3e5d3feb	0.21606414
50	0x3f03bd0e	0.5146035
51	0xbe81dd0d	-0.2536396
52	0x3fc4a9a1	1.5364267
53	0x3fef70b5	1.870627
54	0xbf88a41c	-1.0675082
55	0xbfa534e9	-1.2906772
56	0x3fd132b1	1.6343595
57	0x3f2e8ca6	0.6818336
58	0xbfb37443	-1.4019855
59	0xbf730463	-0.9492857
60	0x3fa52e8d	1.2904831
61	0x3f4721bd	0.77785856
62	0xbe8b7c7a	-0.27243406
63	0xbdd2f4b2	-0.10300578
64	0x3fc96d99	1.5736572
65	0x3ff96697	1.9484433
66	0xbf9173f3	-1.136351
67	0xbfa21070	-1.2661266
68	0x3fda0b11	1.7034627
69	0x3ff23d15	1.8924891
70	0xbfa03f86	-1.2519386
71	0xbfd413a5	-1.6568495
72	0xbe899021	-0.26867774
73	0xbe37c165	-0.17944868
74	0x3edb5320	0.42836857
75	0xbdc5be07	-0.096553855
76	0x3fe3c212	1.77936
77	0x3f96bab2	1.1775725
78	0xbfea6a1b	-1.8313631
79	0xbfc9eb67	-1.5774964
80	0x4004435b	2.066611
81	0x3fa72c13	1.3060325
82	0xbf724313	-0.946336
83	0xbf1de704	-0.61680627
84	0x3fb29663	1.3952144
85	0x3fd29fd6	1.6455028
86	0xbfa43553	-1.2828773
87	0xbfedc4e1	-1.8575708
88	0x3cfa6d2c	0.030569635
89	0x3f9a70f8	1.2065725
90	0x3f11ed0a	0.5700232
91	0xbdb4c117	-0.088258915
92	0x3fff6427	1.9952439
93	0x3f8320b6	1.0244358
94	0xbfafbc28	-1.3729296
95	0xbfdf6a7b	-1.745437

0.bias f4 [24]
0	0x3fe0eda6	1.7572525
1	0xbea37dee	-0.31932014
2	0xbe831c81	-0.25607684
3	0x3f9741ec	1.1816993
4	0x3f903cc7	1.1268548
5	0x3f852dd8	1.0404615
6	0xbe864e4f	-0.2623162
7	0xbef07850	-0.4696679
8	0xbdedbbc6	-0.116080806
9	0xbe939403	-0.2882386
10	0x3fcb212f	1.5869502
11	0x3fe47072	1.7846816
12	0x3faf76ec	1.3708167
13	0x3fbc6c25	1.4720503
14	0x3fc175ca	1.5114071
15	0x3faac8b6	1.3342502
16	0x3fbda491	1.4815847
17	0x3feab871	1.8337537
18	0xbeece4d7	-0.4626834
19	0x3fe02b9a	1.7513306
20	0x3fb8a36f	1.4424876
21	0x3faf2ae0	1.368496
22	0x3fa010c4	1.2505116
23	0x3fd1f196	1.6401851

2.weight f4 [24, 24]
0	0x3fb528c4	1.4153066
1	0x3db9b626	0.09067945
2	0xbe11f8c1	-0.14255048
3	0x3fdae9d5	1.710261
4	0x3fd67c30	1.6756649
5	0x3fd739fa	1.6814568
6	0xbe261d71	-0.16222169
7	0x3d591674	0.05299993
8	0xbe27e31f	-0.16395234
9	0xbe3dbd25	-0.18529184
10	0x3fcda0ae	1.606466
11	0x3fd035a4	1.626637
12	0x3fceb489	1.6148845
13	0x3fd7d751	1.6862584
14	0x3fddac78	1.7318258
15	0x3fca99a1	1.5828134
16	0x3fcc0e1a	1.5941803
17	0x3faf6903	1.3703922
18	0x3de2bb69	0.11070902
19	0x3fcfb62d	1.6227471
20	0x3ff450e9	1.9087192
21	0x3fcedc65	1.6161009
22	0x3fd13477	1.6344136
23	0x3fb0b45e	1.3805044
24	0xbe17d205	-0.1482621
25	0x3c8a4d7e	0.016882654
26	0x3e1e12bf	0.15436839
27	0xbe06f5b2	-0.13179663
28	0xbe45f336	-0.19331059
29	0xbb9384a5	-0.0045018964
30	0x3e47c5d9	0.19509067
31	0x3e25bd63	0.16185527
32	0x3e05d8e5	0.1307102
33	0x3d580b40	0.052745104
34	0xbd516fcf	-0.05113202
35	0x3d21f314	0.039538458
36	0xbe40bf53	-0.18822984
37	0xbdf8fdf6	-0.12157814
38	0x3dc03a6c	0.09386143
39	0x3e200ec7	0.15630637
40	0x3e0b1fe4	0.13586384
41	0xbd608e38	-0.05482313
42	0xbe0f9fff	-0.14025877
43	0xbe1adcf9	-0.15123357
44	0xbd034007	-0.032043483
45	0xbddeb66a	-0.108746365
46	0x3e348fab	0.1763293
47	0x3e016be0	0.12638807
48	0x3faa5449	1.3306972
49	0xbdf47ed7	-0.11938255
50	0xbc47654e	-0.012170149
51	0x3ff7fe3c	1.9374461
52	0x3fc892b5	1.5669771
53	0x3fd59e39	1.6688911
54	0xbd3873b3	-0.045032214
55	0x3c8c6084	0.017135866
56	0xbe33a851	-0.17544676
57	0x3ddeef6a	0.10885508
58	0x3fb661f8	1.4248648
59	0x3fc39582	1.5280001
60	0x3fdc3e55	1.7206522
61	0x3fd66b51	1.67515
62	0x3fde4e6f	1.7367686
63	0x3ff0d993	1.8816398
64	0x3fd5b7d0	1.669672
65	0x3fab2f18	1.3373747
66	0x3da9dc6d	0.08293996
67	0x3fc42627	1.5324143
68	0x3ff13f9a	1.8847535
69	0x3fcc4d0c	1.5961013
70	0x400445dd	2.066764
71	0x3fcb5131	1.5884153
72	0xbe165806	-0.14682016
73	0x3e36d460	0.17854452
74	0x3db26b11	0.087118275
75	0xbd9b59cf	-0.07585489
76	0x3cb15951	0.021649035
77	0x3d1230b3	0.035690974
78	0x3e478341	0.19483663
79	0xbe0a46c7	-0.13503562
80	0x3dc60ad3	0.09670033
81	0xbda2a218	-0.07941073
82	0x3e13bc11	0.1442721
83	0x3b5ef5cd	0.003402102
84	0x3dd75dd5	0.10515944
85	0x3cb20cee	0.021734681
86	0xbe3f15ea	-0.18660703
87	0xbdfbe398	-0.122992694
88	0xbe4cde0c	-0.20006579
89	0x3dd80c89	0.10549266
90	0xbd9a049c	-0.075204104
91	0x3d45d177	0.048295464
92	0x3d711693	0.05885942
93	0xbe24f439	-0.16108789
94	0xbce9e810	-0.028553039
95	0x3ca5dbd0	0.020246416
96	0x3e1186ad	0.14211531
97	0x3de80419	0.113289066
98	0xbdb38484	-0.0876551
99	0xbdcee390	-0.10101998
100	0xbd80c35d	-0.062872626
101	0xbd2cb8e7	-0.042168524
102	0xbe2c2a7e	-0.16813084
103	0xbdbea3f8	-0.09308618
104	0x3e4dccb9	0.20097627
105	0xbe2b0660	-0.1670165
106	0xbd47216d	-0.04861586
107	0x3cae9942	0.021313313
108	0xbdcf769c	-0.10130045
109	0xbda543fb	-0.08069607
110	0x3d6dd7c2	0.05806709
111	0x3c8d8f30	0.017280191
112	0x3d765f80	0.06014967
113	0xbe4cc4ad	-0.19996901
114	0xbe220e47	-0.15825759
115	0xbe290428	-0.16505492
116	0xbb29c509	-0.0025904796
117	0x3e21140f	0.15730308
118	0xbcc908a1	-0.024540247
119	0xbdd98f29	-0.10623009
120	0xbe26e8f1	-0.16299798
121	0x3d3f3e37	0.046690192
122	0x3de0ff3e	0.109861836
123	0xbda7ea85	-0.08199028
124	0x3d0284af	0.03186482
125	0xbe03bbaf	-0.12864564
126	0x3d10ece0	0.03538215
127	0x3dbce9bb	0.09224268
128	0xbdfcc2f2	-0.1234187
129	0x3d488a18	0.04895982
130	0x3e1b8e06	0.15190896
131	0xbcf4b4e8	-0.02987142
132	0x3d6fd801	0.058555607
133	0xbdb2dcf7	-0.08733552
134	0x3cfb409e	0.03067046
135	0xbd6bf702	-0.057608612
136	0xbe5a2baf	-0.21305726
137	0x3e0828ca	0.1329681
138	0xbdcf7015	-0.101288
139	0x3e1a4fd6	0.15069517
140	0xbcedc95a	-0.029026676
141	0xbe392489	-0.18080343
142	0x3dc40815	0.09571854
143	0xbcce83f0	-0.025209397
144	0xbe63eb8a	-0.2225782
145	0x3b7bb3d5	0.0038406749
146	0xbe1e5a24	-0.15464073
147	0x3bfcfea1	0.007720784
148	0xbe29da05	-0.16587074
149	0x3dccd3f2	0.10001363
150	0xbdedb7e1	-0.11607338
151	0x3c8057c1	0.015666844
152	0xbe341d6c	-0.17589349
153	0x3d1bbfe8	0.038024813
154	0x3de4f249	0.11179025
155	0xbc525b74	-0.012839187
156	0x3db4e8fc	0.08833501
157	0x3cca21f8	0.0246744
158	0xbe423218	-0.18964422
159	0xbe5b8310	-0.21436715
160	0xbe4cef4c	-0.2001316
161	0x3d4d328e	0.05009704
162	0xbd8312f1	-0.06400097
163	0xbdfad79e	-0.12248157
164	0xbe3cfc50	-0.18455625
165	0x3a1f4c33	0.0006076723
166	0xbd6ce8a5	-0.057839055
167	0x3e142c0b	0.14469926
168	0x3d9c12ab	0.07620748
169	0x3c8e95e3	0.017405456
170	0x3e2ed46b	0.17073219
171	0xbe51008c	-0.20410365
172	0xbe31c5da	-0.1736063
173	0x3ddd3c0d	0.108024694
174	0x3d77c360	0.06048906
175	0xbdf87e01	-0.12133408
176	0x3d8c49e7	0.06850033
177	0x3e2f1a17	0.17099796
178	0x3dd65505	0.10465435
179	0xbbabb2d6	-0.0052398248
180	0x3cee34bf	0.029077886
181	0xbdd18cb6	-0.102319166
182	0xbd5360f6	-0.05160614
183	0xbd61c48d	-0.055119086
184	0xbd1cbc31	-0.03826541
185	0x3b523daa	0.0032080212
186	0xbd66b28e	-0.056322627
187	0x3ba9fb37	0.005187418
188	0xbe221792	-0.15829304
189	0xbd195800	-0.03743744
190	0xbd4c221c	-0.049837217
191	0xbc7e7284	-0.015530232
192	0x3fc11845	1.5085531
193	0xbcfda44e	-0.030962136
194	0x3e169d62	0.14708474
195	0x3fff1c3b	1.993049
196	0x3fbfe162	1.4990656
197	0x3fd94122	1.6973002
198	0xbcb81718	-0.02247195
199	0x3e191d53	0.14952593
200	0xbdeb319a	-0.1148407
201	0x3d9ff0a9	0.07809574
202	0x3fd5cf84	1.6703954
203	0x3fcc0159	1.5937911
204	0x3fffe0c2	1.9990466
205	0x3fcea8aa	1.6145222
206	0x3fe4be17	1.7870511
207	0x400263f7	2.0373514
208	0x3fdc9fb5	1.7236239
209	0x3facc86c	1.3498664
210	0xbe1624d8	-0.14662492
211	0x3fbce48e	1.4757249
212	0x3fcbd000	1.5922852
213	0x3fc07ae0	1.5037498
214	0x3ff462e5	1.909268
215	0x3fd41e72	1.6571791
216	0x3fc596c5	1.5436636
217	0x3e0d9749	0.13827242
218	0x3d282ea5	0.04106011
219	0x3fe9bbcf	1.826044
220	0x3fd8cd1d	1.6937596
221	0x3fc0a4b4	1.5050263
222	0xbdf1c21b	-0.11804601
223	0x3ddf0804	0.10890201
224	0xbd0261d8	-0.031831592
225	0x3e466e42	0.19377998
226	0x3fc246a4	1.5177808
227	0x3fb9f766	1.4528625
228	0x3fdf63f9	1.7452384
229	0x3fd0f749	1.6325465
230	0x3fc21fc5	1.5165945
231	0x3fd31cc2	1.6493151
232	0x3fbfee0d	1.4994522
233	0x3fb70cad	1.4300743
234	0x3e473825	0.19455011
235	0x3fd22a29	1.6419116
236	0x3fe28774	1.7697587
237	0x3fbb7b62	1.4647028
238	0x3fd5cd40	1.6703262
239	0x3fbad616	1.4596584
240	0xbc3a8ab9	-0.011385613
241	0x3e16cee0	0.14727354
242	0xbd9da2dc	-0.076970786
243	0x3d9ed28f	0.077550046
244	0xbe58a6e6	-0.21157417
245	0x3d09598f	0.033532675
246	0xbe0fe677	-0.14052759
247	0x3d4a10e1	0.049332503
248	0xbdedb879	-0.11607451
249	0x3d519f99	0.051177595
250	0x3e04150f	0.12898658
251	0x3dc187a1	0.09449697
252	0xbce96196	-0.028488915
253	0xbe5d0a77	-0.21586023
254	0xbddf462e	-0.109020576
255	0xbe367e91	-0.17821719

2.bias f4 [24]
0	0x3fbe9721	1.4889871
1	0xbe18404e	-0.1486828
2	0x3fc2c499	1.5216247
3	0xbd38248a	-0.04495672
4	0xbe44680c	-0.19180316
5	0xbdfbec94	-0.12300983
6	0xbc998c8e	-0.01874378
7	0xbd5147e1	-0.05109394
8	0x3fc5c746	1.5451438
9	0x3fa1a22d	1.2627617
10	0xbe35b2ed	-0.17744036
11	0x3fa9138e	1.3209093
12	0x3f8451bf	1.0337447
13	0x3f9c0968	1.219037
14	0x3fa3586e	1.2761362
15	0x3fc857a6	1.5651748
16	0x3fb7f2ac	1.4370933
17	0x3e691fc8	0.2276603
18	0x3fda2ed5	1.7045542
19	0x3fc791fc	1.5591426
20	0x3fd21b03	1.6414493
21	0xbe38ef6c	-0.18060082
22	0x3d4cc647	0.04999378
23	0x3bc301ca	0.005951141

4.weight f4 [2, 24]
0	0x3fa97dfc	1.3241572
1	0xbdb07a47	-0.086170726
2	0x3f9738d4	1.1814218
3	0xbca2e088	-0.019882455
4	0x3e3424cf	0.17592166
5	0xbdaedfe8	-0.085388005
6	0xbd97437d	-0.07385919
7	0xbbedb5a5	-0.0072543197
8	0x3f888677	1.0666035
9	0x3fa43e4e	1.2831514
10	0xbe025e7c	-0.12731355
11	0x3fab9586	1.3405006
12	0x3f749616	0.9554151
13	0x3fab1c8b	1.3368086
14	0x3f84987f	1.0359038
15	0x3f8c7640	1.0973587
16	0x3f9a0e96	1.2035701
17	0x3f78a7a2	0.9713079
18	0x3fb7bbe9	1.4354221
19	0x3fa9c18f	1.3262194
20	0x3f83f581	1.0309297
21	0xbdd54979	-0.104144044
22	0xbcdf91df	-0.027291236
23	0x3dde6b39	0.10860295
24	0x3f9efd81	1.2421113
25	0xbe37ad9a	-0.17937317
26	0x3fb5c76f	1.4201487
27	0xbd4939d3	-0.04912741
28	0xbe2bd828	-0.16781676
29	0xbd6f3944	-0.058404222
30	0x3d0b3823	0.033989083
31	0xbd7d551a	-0.061848737
32	0x3fb73e68	1.431592
33	0x3fbc65dc	1.4718585
34	0x3d69c9a9	0.057077084
35	0x3fba15b0	1.4537868
36	0x3f4f428c	0.8096092
37	0x3fc9e4c1	1.5772935
38	0x3fc104f2	1.5079634
39	0x3fa92768	1.3215151
40	0x3fc2532e	1.5181634
41	0x3e2f4641	0.17116643
42	0x3fa3f0a6	1.2807815
43	0x3fb60293	1.4219536
44	0x3fb1737f	1.3863372
45	0x3d3891d3	0.045060944
46	0xbcdc51b2	-0.026894424
47	0xbe28e494	-0.16493446

4.bias f4 [2]
0	0xbc89c9b6	-0.016819816
1	0x3fa80001	1.3125001
