qlearning_agent_policy_20250604_174818.pth (torch, 3016 bytes, 4 tensors)

0.weight f4 [24, 4]
00000000: 139c 2140 8150 1c40 e082 2cc0 1eb3 32c0
00000010: 76ef d9bf eae3 20c0 1d5d 2840 547b 2740
00000020: 26d3 1140 46f0 0d40 0d35 f3bf ec36 33c0
00000030: 203c 0340 cdd8 2840 5b24 e5bf 6fea 1fc0
00000040: 3ec1 2f40 a1ab 3540 7921 23c0 dce1 2cc0
00000050: 82b8 9a3b 2927 043e bb43 f1bd c058 c33c
00000060: bd9f b4bf c33d c5bf 5839 1240 8788 0c40
00000070: 1bec 1540 62d3 1540 2ce3 2cc0 9533 22c0
00000080: 630d 1040 0c3b 2940 3665 23c0 eb46 39c0
00000090: b38b 06c0 a5e1 1ac0 dc8e f53f 2f9d 1a40
000000a0: 030a 0ac0 660f 25c0 5c23 0640 89d9 1440
000000b0: 0570 15c0 e58f f3bf d585 f73f 29ef 2240
000000c0: 972f 0240 8378 3740 7760 35c0 0847 24c0
000000d0: 77cd f83f d90c 2e40 b924 f3bf ba91 24c0
000000e0: 256d 06c0 59ea 0ac0 d5e0 0840 0bce 2440
000000f0: 45dc 1bc0 5915 17c0 6765 0f40 fb38 0d40
00000100: 6423 e83f 7882 3740 2633 0ac0 a1d5 1ac0
00000110: 1ef1 993e 6cce 26be f4eb 053e dc2c f6bc
00000120: 82f4 12c0 b52c 1bc0 f3a0 1f40 8a9d 1740
00000130: 60b2 12c0 a352 0cc0 a95b d23f 288f 2140
00000140: a8aa f33f 4cb7 ed3f 548c 31c0 a91c 1dc0
00000150: 257a e5bf 87b5 16c0 dafe 0440 ffb7 e33f
00000160: 0834 2140 0d58 2d40 e0e4 19c0 bffc 27c0
00000170: d5fd 2f40 6e52 2740 2b32 2ac0 3889 24c0
2.525151 2.4424136 -2.695488 -2.7921824 -1.7026203 -2.5139108 2.6306832 2.6169024
2.2785125 2.2177901 -1.9000565 -2.8002272 2.0505447 2.6382325 -1.790172 -2.4986837
2.7461696 2.8386004 -2.548918 -2.7012854 0.004721702 0.12905563 -0.11780497 0.02384603
-1.4111248 -1.5409473 2.28475 2.195833 2.3425357 2.3410268 -2.7013655 -2.5343983
2.250817 2.644229 -2.5530524 -2.8949535 -2.1022766 -2.4200222 1.9184222 2.4158437
-2.156861 -2.5790648 2.0959082 2.3257773 -2.3349621 -1.9028288 1.9337717 2.5458472
2.0341547 2.8667305 -2.8340127 -2.5668354 1.9437703 2.7195342 -1.8995582 -2.5713944
-2.1004117 -2.1705534 2.1387227 2.5750759 -2.4353192 -2.360678 2.240564 2.2066028
1.81358 2.8673382 -2.1593719 -2.4192889 0.3006677 -0.16289681 0.1307829 -0.030050687
-2.2961736 -2.4246037 2.4941986 2.3689904 -2.2921371 -2.1925437 1.6434222 2.5243626
1.9036455 1.8571563 -2.77419 -2.4548743 -1.79279 -2.3548295 2.078055 1.7790526
2.5188007 2.7084992 -2.4045944 -2.6248014 2.7498677 2.614406 -2.659312 -2.5708752

0.bias f4 [24]
00000000: bf3c 1b40 b632 1140 e9b7 0c40 e8d6 e73f
00000010: 2713 1c40 f728 71be 8d9c 0c40 d878 1f40
00000020: d269 3040 35d5 1040 d0bd 2440 b28d 2340
00000030: ac14 1640 ac54 1140 c308 2240 3006 2640
00000040: 2506 2540 6fec d1be bcf6 0740 c81d 2840
00000050: 9e17 0a40 cfff 1640 db83 2340 1a83 0840
2.4255826 2.2687201 2.198725 1.8112459 2.438669 -0.23550783 2.197055 2.4917507
2.7564588 2.2630131 2.5740852 2.5555234 2.3450117 2.270793 2.5317848 2.5941277
2.5785 -0.41000697 2.1244345 2.6268177 2.1576915 2.3593633 2.5549228 2.1330018

2.weight f4 [2, 24]
00000000: 86a4 0840 bd98 0940 1984 1140 0263 1a40
00000010: 152b 0840 3f57 113b 0922 fd3f b963 f03f
00000020: 8d2a f63f ee24 1040 c02a 0c40 f406 0e40
00000030: a20d 0140 0d86 0240 ca26 0240 c01f f73f
00000040: 6fec ff3f 304b 07be 6eea 1240 4be8 ff3f
00000050: c591 f83f e8cd 0040 1b2f e53f 6415 0b40
00000060: fecf 1140 39f7 dd3f 9598 2640 9b49 0f40
00000070: c0f4 1840 2d1d 3fbd 7e65 e73f 8df9 1c40
00000080: b37c 1640 9e0f de3f be81 d83f 0c4a e73f
00000090: ed70 1e40 9704 2240 ee72 ed3f bceb f13f
000000a0: 6e03 2040 e6ab 003e b716 eb3f de49 f73f
000000b0: 3673 1440 552a e13f dd45 1f40 2b04 2140
2.1350417 2.1499474 2.2736876 2.412293 2.1276295 0.0022177247 1.9776012 1.8780433
1.9231735 2.252254 2.1901093 2.2191744 2.016457 2.0394318 2.0336175 1.9306564
1.9994029 -0.13212276 2.2955585 1.9992765 1.9419485 2.0125675 1.7905 2.1731806
2.2783198 1.7341071 2.6030629 2.2388675 2.3899384 -0.046658684 1.8077848 2.4527314
2.351361 1.7348516 1.6914594 1.8069472 2.4756424 2.5315301 1.8550699 1.8900065
2.5002093 0.12565574 1.8366307 1.9319417 2.319532 1.7591044 2.488639 2.5158794

2.bias f4 [2]
00000000: 68fa dc3f d1b9 e13f
1.7263918 1.7634832
