qlearning_agent_policy_20250604_172639.pth (torch, 3016 bytes, 4 tensors)

0.weight f4 [24, 4]
000000 7b ae b7 3d 63 08 ca 3c 1e f7 5f 3e c1 18 b1 bd
       0.089688264 0.024662202 0.21871611 -0.086472996
000010 f2 2f ac be 56 09 92 be 71 98 de 3d dd cb 88 bd
       -0.3363033 -0.28522748 0.1086892 -0.06679509
000020 65 10 f1 3f b0 bc 05 40 88 20 06 c0 ba 93 08 c0
       1.8833128 2.0896416 -2.0957355 -2.1340165
000030 08 9a 14 40 b2 ab 22 40 7b ab 00 c0 49 f8 07 c0
       2.3219013 2.5417295 -2.0104663 -2.1245291
000040 ca eb 80 3e db 11 4d 3e db d5 64 be cb 7f 23 3e
       0.25179893 0.20026343 -0.22347204 0.15966718
000050 ac 72 f1 3f ae ad 07 40 22 d8 26 c0 c2 d6 00 c0
       1.886312 2.1199756 -2.6069417 -2.0131078
000060 da 12 23 40 78 ca 23 40 14 86 fd bf 97 1c 04 c0
       2.5480256 2.5592327 -1.9806542 -2.064245
000070 30 71 5d 3e b3 7f 9c 3e c7 f8 a2 be 6b 54 f4 3d
       0.21625209 0.30566177 -0.31830427 0.11930164
000080 b4 07 21 c0 dc 93 04 c0 66 9b 07 40 b8 b7 1a 40
       -2.5160952 -2.0715246 2.1188598 2.4174633
000090 59 fd bf bf 3e b6 0c c0 bc 2e da 3f 19 6f 0e 40
       -1.499919 -2.1986232 1.7045512 2.2255309
0000a0 0b 93 df 3f 21 fa f9 3f 70 d3 e3 bf 24 36 22 c0
       1.7466749 1.9529458 -1.7798901 -2.5345545
0000b0 f9 46 14 40 2b b1 28 40 f4 23 06 c0 63 99 e8 bf
       2.3168318 2.6358135 -2.0959444 -1.817181
0000c0 47 73 22 40 71 a6 1f 40 71 3e ed bf 25 91 10 c0
       2.538286 2.4945338 -1.8534681 -2.258859
0000d0 da 3a db bf ac e8 1f c0 03 14 df 3f 11 b0 23 40
       -1.7127335 -2.4985762 1.7427982 2.5576212
0000e0 3d 93 1a 40 d6 9c 0b 40 5a 0c 1b c0 19 0e 26 c0
       2.4152367 2.1814475 -2.4226289 -2.5946105
0000f0 13 57 bc bd b6 3c fd 3d 4c 1b b1 3e 6b c0 b7 3c
       -0.091962956 0.12365095 0.34591138 0.02243062
000100 23 c4 dc bf d7 fa 0a c0 6a b9 d5 3f 6e 80 1e 40
       -1.7247356 -2.17156 1.6697209 2.4765887
000110 68 6b 1a c0 fd 12 1f c0 bb 78 13 40 f0 58 1a 40
       -2.4128056 -2.485534 2.3042438 2.4116783
000120 bf f9 a0 3e b1 27 7c 3e c1 44 4b be 5b 80 86 3e
       0.3144054 0.24624516 -0.19850446 0.26269802
000130 4c 02 20 40 db 85 0f 40 08 53 22 c0 c1 be 26 c0
       2.5001402 2.242545 -2.5363178 -2.6053927
000140 63 8b 00 40 a7 a0 20 40 7e fe 15 c0 38 5c 1a c0
       2.0085075 2.5098054 -2.343658 -2.4118786
000150 fc ad 05 40 2a 66 22 40 6e af e6 bf aa 5b 06 c0
       2.0887442 2.5374856 -1.8022287 -2.0993447
000160 ea e2 df 3f 5f 62 13 40 f5 22 14 c0 4f 7f 1c c0
       1.7491124 2.302879 -2.3146336 -2.4452703
000170 82 e2 1b 3f 75 23 40 3c 20 43 6c 3e fb ec 47 3d
       0.608925 0.011727204 0.23072481 0.048809987

0.bias f4 [24]
000000 d4 87 8b be 01 71 00 bf 4b b4 1d 40 54 11 22 40
       -0.27252066 -0.5017243 2.4641292 2.5323076
000010 89 e8 53 bd 9f 2c 25 40 3e 87 02 40 5c ee e9 be
       -0.051735435 2.5808485 2.0395045 -0.45689666
000020 77 12 09 40 cc 10 ff 3f 02 16 01 40 0c 3f 15 40
       2.141752 1.9927001 2.0169683 2.331973
000030 8d bd 27 40 11 05 f4 3f 10 41 14 40 4d d6 c0 be
       2.6209443 1.9064046 2.316471 -0.376635
000040 4c a1 f9 3f 20 06 ea 3f d5 a6 97 be 1d 51 f4 3f
       1.9502349 1.8283119 -0.2961947 1.9087254
000050 1a 50 08 40 b4 80 21 40 40 3b 19 40 6c e6 c0 bd
       2.129889 2.5234804 2.3942413 -0.094189495

2.weight f4 [2, 24]
000000 a7 c9 80 bd 78 95 8e 3d d7 c3 0b 40 5a 6d 0b 40
       -0.06288462 0.06962103 2.183828 2.1785493
000010 bb ec f3 bd 5d 8f 0a 40 21 c7 19 40 3c ea 43 3e
       -0.11910387 2.1650002 2.4027789 0.19132322
000020 91 ba 0c 40 d0 1f f6 3f 84 49 10 40 2c 1a 05 40
       2.198887 1.9228458 2.254487 2.0797224
000030 0c a3 07 40 fc f5 18 40 0a 59 0f 40 d6 b8 1a bc
       2.1193266 2.3900137 2.2398095 -0.009443482
000040 3d 27 19 40 62 a4 10 40 ed ec dd bd 21 db 04 40
       2.39302 2.2600331 -0.10836206 2.0758746
000050 43 b1 09 40 be 11 0c 40 a3 d7 00 40 42 4e af bd
       2.1514442 2.188583 2.0131614 -0.08559848
000060 ef 3a f2 bd 19 9f 7b bd 32 5c 02 40 52 8c 06 40
       -0.11827647 -0.061431024 2.0368772 2.1023145
000070 70 cf 83 bd 01 f6 0c 40 1c 20 13 40 fd 96 d4 3c
       -0.0643605 2.202515 2.2988348 0.025950903
000080 d6 78 14 40 55 79 fb 3f 93 9b 19 40 c7 13 12 40
       2.3198752 1.9646403 2.4001205 2.282457
000090 3b 63 08 40 e1 28 05 40 45 27 0c 40 bb 27 3e 3e
       2.1310565 2.08062 2.1898968 0.18569843
0000a0 88 ad 06 40 f0 c6 03 40 19 d8 77 bd 54 5f 16 40
       2.1043415 2.0590172 -0.06050882 2.3495684
0000b0 41 7a 14 40 ba fb 02 40 b3 67 11 40 f1 fb 5d bc
       2.3199618 2.0466142 2.2719543 -0.013548837

2.bias f4 [2]
000000 da 1c cb 3f 5e 6b e3 3f
       1.586818 1.7767141
