qlearning_agent_policy_20250604_170054.pth (torch, 3016 bytes, 4 tensors)

0.weight f4 [24, 4]
0	0x4038969d	2.8841927
1	0x402a59a1	2.6617205
2	0xc01901f0	-2.3907433
3	0xc0501c84	-3.2517405
4	0x3d9eda97	0.077565365
5	0x3eda8b6e	0.426845
6	0x3db124f5	0.08649627
7	0x3ee35ab3	0.44405136
8	0x4029cca8	2.6531162
9	0x40426ba1	3.0378191
10	0xc028ac2d	-2.6355088
11	0xc034a9c4	-2.8228617
12	0x3dafcdd3	0.0858418
13	0x3f0fae62	0.5612546
14	0xbf82a3e7	-1.0206269
15	0xbf1d457f	-0.6143417
16	0xbdebb4a0	-0.11509061
17	0xbc749690	-0.014928475
18	0xbeadca7f	-0.33943555
19	0xbda9c0ee	-0.082887515
20	0x401cdae6	2.4508605
21	0x40243857	2.5659387
22	0xc01772bd	-2.366378
23	0xc05141e1	-3.269646
24	0xbf80e59b	-1.007007
25	0x3f118326	0.5684074
26	0x3abfe552	0.0014640486
27	0x3e4f473a	0.20242015
28	0xbfebdc00	-1.8426514
29	0xbedcb930	-0.43110037
30	0x3fbfc6d3	1.4982551
31	0x3f7b8f7f	0.9826583
32	0x4034e07f	2.8262022
33	0x40260b89	2.594454
34	0xc0318cdf	-2.774223
35	0xc04cdc66	-3.200952
36	0x403d6a6c	2.9596205
37	0x40449bbe	3.0720057
38	0xc03c7281	-2.9444888
39	0xc04ca0ad	-3.1973069
40	0xbe409f13	-0.18810682
41	0x3e8212e2	0.2540503
42	0xbf08e8b1	-0.5348006
43	0xbf685922	-0.90761006
44	0x3f9cfe87	1.2265176
45	0x4015b103	2.338929
46	0xbf9c98c4	-1.223412
47	0xc012ac3e	-2.2917628
48	0x401d8472	2.4612088
49	0x40356caf	2.8347585
50	0xc03fc25a	-2.9962373
51	0xc0546ba8	-3.3190708
52	0x4009c3a4	2.152566
53	0x4054b53d	3.323562
54	0xc012ceac	-2.2938643
55	0xc0549b4b	-3.3219783
56	0x3e926600	0.28593445
57	0x3f14702f	0.5798368
58	0x3bf1916a	0.007372071
59	0xbea17ccc	-0.31540525
60	0x400cf3ce	2.2023807
61	0x3ffe101d	1.9848667
62	0xbff8ce13	-1.9437889
63	0xc013e444	-2.3108072
64	0xbf883953	-1.0642494
65	0xbef4fd3f	-0.4784946
66	0x3f6791a4	0.90456605
67	0x3ed7135b	0.42006955
68	0xbfdb3bcc	-1.7127624
69	0xbf6ebcba	-0.93256724
70	0x3ff41d13	1.9071373
71	0x3f964622	1.1740153
72	0xbf78fa4f	-0.9725694
73	0xbefd6c35	-0.49496618
74	0x3f983272	1.1890395
75	0x3f345c87	0.70453686
76	0x3e152c64	0.14567715
77	0x3e031d3b	0.1280412
78	0xbc647fb2	-0.013946461
79	0xbde3d419	-0.11124439
80	0xbf2a6f8c	-0.6657646
81	0xbe8349f7	-0.25642368
82	0x3f32abb1	0.6979323
83	0xbcfa7ca3	-0.03057701
84	0x40220578	2.5315838
85	0x40547fe2	3.3203053
86	0xc036d9bf	-2.8570402
87	0xc050e794	-3.2641344
88	0x3f99f29d	1.2027165
89	0x3fb0c6a1	1.3810617
90	0xbfaaaa8f	-1.33333
91	0xbfc85815	-1.565188
92	0x3ba0ce40	0.0049073994
93	0x3f2da870	0.6783514
94	0xbf8281b0	-1.0195827
95	0xbf943d45	-1.1581198

0.bias f4 [24]
0	0x402cdd06	2.7009902
1	0xbef0a9e4	-0.47004616
2	0x4020b083	2.5107734
3	0x402cac82	2.698029
4	0xbea18886	-0.31549472
5	0x401e52e5	2.4738095
6	0x402768f2	2.6157804
7	0x4018a755	2.3852131
8	0x4030465a	2.754294
9	0x4045c5c6	3.0901961
10	0x403572b1	2.8351252
11	0x404d3725	3.2064908
12	0x4035ffaa	2.8437295
13	0x404f3adf	3.2379682
14	0x403f2213	2.9864547
15	0x403486e5	2.8207333
16	0x4015c121	2.3399127
17	0x401699b4	2.3531313
18	0x40253e33	2.5819213
19	0xbf263851	-0.6492968
20	0x4034d4d3	2.8254898
21	0x4033205c	2.79885
22	0x404360d7	3.0527856
23	0x40418a23	3.0240562

2.weight f4 [2, 24]
0	0x4040b3fc	3.0109854
1	0x3e3d438a	0.18482795
2	0x4030fbd9	2.7653716
3	0x40153f52	2.3319898
4	0xbe0bcf59	-0.13653316
5	0x403abec5	2.9178936
6	0x401c8233	2.4454467
7	0x4018c4bb	2.3870075
8	0x402fdf3a	2.7479997
9	0x40325c10	2.786869
10	0x402ce18c	2.7012663
11	0x4026565a	2.5990205
12	0x403a4147	2.9102342
13	0x401f18c3	2.4858863
14	0x40111b67	2.2672975
15	0x401c0ce9	2.438288
16	0x4022e02e	2.5449328
17	0x4002ddd0	2.0447884
18	0x40165a1e	2.3492503
19	0xbd4dc500	-0.050236702
20	0x4013c029	2.3086035
21	0x4026c5ff	2.6058347
22	0x40348ab3	2.8209655
23	0x4023abfc	2.557372
24	0x40364c07	2.8483903
25	0x3e1056f0	0.14095664
26	0x402d21a2	2.7051778
27	0x40105d19	2.2556822
28	0xbdf6156b	-0.12015804
29	0x4033e5f3	2.81091
30	0x40226054	2.5371294
31	0x40070f09	2.1102927
32	0x403d840c	2.9611845
33	0x402afb83	2.671601
34	0x402977e6	2.647943
35	0x402fdc0f	2.7478063
36	0x40292418	2.642828
37	0x40328796	2.7895255
38	0x401cd95c	2.4507666
39	0x401a47b3	2.4106262
40	0x4024f716	2.577581
41	0x4014bea6	2.3241363
42	0x400e7140	2.2256622
43	0xbd2b2dd9	-0.04179177
44	0x40199df7	2.4002664
45	0x4039ec7b	2.9050586
46	0x40218bcb	2.5241573
47	0x4027eb15	2.6237233

2.bias f4 [2]
0	0x400c0873	2.1880157
1	0x40009f18	2.0097103
