qlearning_agent_policy_20250605_110943.pth (torch, 6014 bytes, 6 tensors)

0.weight f4 [24, 4]
00000000: cc83 9b3e 78ab e1be a2c7 f23e ee88 a9be
00000010: 008d 0bbe 7b42 a83d c8aa 84be 8a59 d8be
00000020: 6bd4 71be 7d3d 953e b806 cc3d 292e 8e3e
00000030: 8bcf 7d3e 34dd 353e ed64 7b3e 2a87 353b
00000040: aa34 8a3e 6833 f3be cb44 923d 2fc4 8ebe
00000050: c2ed f23e adaf 933e 774a de3e aedb f4be
00000060: 914a 4c3e 1a5b ef3e 34ac 873e c1af 18bd
00000070: e4ed 64be 332c d93b 0d2a afbd c0ff 523e
00000080: bb91 7a3e caba b8be 03ea cc3e f70c 6b3e
00000090: a233 7cbe f800 d73e 7bf1 ff3c f25b 15be
000000a0: 68d5 91bd 20a3 ab3d fc21 f53e 0063 863c
000000b0: 555b 99bd 853f c8bd 6623 fbbe f246 b4be
000000c0: 1641 4fbe 45ce 56be cf20 a93e 002b 493e
000000d0: c97e de3d 44cb fe3e aa45 a33e 66f8 9d3e
000000e0: bb3a ddbe 2b2b a73e 2a2b fbbe fa64 d8be
000000f0: fca6 763e 000c e5bd 141f 21be 4c59 10be
00000100: 81e9 f93e 6cfb 50be f3f8 163d e805 573e
00000110: 822a c43d bf1c 853d f83f b1bd 5d29 c33e
00000120: 8229 a8bd 9ed8 bdbe 98a3 d93d b5eb b03e
00000130: 12b0 c8be cae9 b2be 0aea 273d 0adc b53e
00000140: f2be b03d 3247 0c3e 050e 92be 99af e5be
00000150: 31eb fd3e 63a5 5f3d 01c6 823e fac6 cd3d
00000160: 766b 91bd 3e7b b73e 79ec 803e 796d f53c
00000170: d463 f6be 82bf babe 8094 d2bb 1000 c7be
0.3037399 -0.44076133 0.47417933 -0.33112282 -0.13628006 0.08215805 -0.25911546 -0.42255813
-0.23616187 0.29148474 0.09962219 0.27769592 0.24786203 0.17760164 0.24550219 0.0027698972
0.26993304 -0.47500157 0.071420275 -0.2788405 0.4744702 0.28844967 0.43416187 -0.47823852
0.1995032 0.46749192 0.26498568 -0.037276987 -0.22356373 0.0066275834 -0.085529424 0.20605373
0.24469654 -0.3608001 0.40022287 0.22954164 -0.24629071 0.41992927 0.031243077 -0.14585856
-0.07120782 0.08380723 0.4787749 0.016404629 -0.07488123 -0.097777404 -0.49050444 -0.35210377
-0.20239672 -0.20977123 0.33032843 0.1964531 0.10864026 0.49764454 0.31889087 0.30853575
-0.4320887 0.32650122 -0.4905637 -0.4226454 0.24087137 -0.111839294 -0.15734512 -0.14096564
0.48810962 -0.2040841 0.03685851 0.20998347 0.0957842 0.064996235 -0.08654779 0.38117495
-0.08211042 -0.37079328 0.10626906 0.3455483 -0.3919683 -0.34943992 0.04099468 0.3551944
0.0863017 0.13699034 -0.2852632 -0.44860533 0.495935 0.054601084 0.2554169 0.100477174
-0.07100575 0.35836214 0.25180414 0.029959427 -0.48123038 -0.36474234 -0.006426394 -0.38867235

0.bias f4 [24]
00000000: 6867 c2be 8da2 88be 90da 37be 705f f33d
00000010: 22d7 753e 7966 a0be f991 8b3e b424 953d
00000020: 910a debe eb10 b8be d880 a4be cb28 193e
00000030: c085 8e3e ee61 3bbe 8539 d33e 307e aebe
00000040: 6550 acbd b7d8 ecbd 69ee b0be 9f52 7dbe
00000050: 9710 cd3e 6454 c53e c3d0 43be 1090 b1be
-0.37969518 -0.26686516 -0.17954469 0.11883438 0.24007848 -0.3132818 0.27259806 0.07282391
-0.43367437 -0.35950407 -0.3212955 0.14956968 0.27836418 -0.18299076 0.4125482 -0.34080648
-0.084137715 -0.115647726 -0.34556893 -0.24738549 0.4005172 0.38540947 -0.19122605 -0.34680223

2.weight f4 [24, 24]
00000000: a8cf e73d 18a0 c4bc 682f bd3c b731 13be
00000010: 94c7 453e cfa8 96bd 5115 a63d 905f 3fbe
00000020: bea9 3ebe f07e 973d e50c 31be f0bb 0d3d
00000030: 7e79 d0bc b93a 0abe 4a85 9b3c 1832 9f3d
00000040: 6189 4fbe e810 2a3d 88ed ef3d 724a d1bd
00000050: e3d2 dd3d e7e2 c03c 96db 0f3e 896b f6bd
00000060: f8ca bb3c e23b 08be 32ca 9dbd 78a0 223e
00000070: bd9d babd 445a 8bbd 1095 143d 201b 43be
00000080: 7d11 15be e436 4d3e dec1 073e 9a39 3bbe
00000090: 0950 2bbe 406b ab3d cd2f 2cbe 58a5 e43d
000000a0: 787a 42be 66f4 303e 32e7 1f3e 38b6 9dbc
000000b0: 5eff 3bbe 4c44 033d 6836 f13c 5299 473e
000000c0: bc88 913d e29d 2e3e 7226 8bbd a073 853d
000000d0: d418 813d f2fe 31be e4be a53d a8b8 493e
000000e0: b084 94bc 6004 8fbc fea5 0a3e c869 c3bc
000000f0: 4029 27be c4f6 24be 4cb8 22be c414 e93d
00000100: 32ce c2bd 62eb c8bd 45e2 45be 168b 283e
00000110: 65cd 46be f88a 0e3d 30d1 0fbd 687b 04bd
00000120: 08ef 19be 36ef d5bd cf4f b33d 2ecd f63c
00000130: 31b0 383c 3884 d7bc 6d50 e93c 45ac 1fbe
00000140: 8fe9 0a3e 5b11 cbbd 44de 123e 79a7 4fbe
00000150: 83e2 afbd 440b a53d 7392 1fbe 9245 3fbe
00000160: 2085 f83d 09d0 11bd 51e2 803c 8a47 66bd
00000170: 7f15 0e3b 6d88 4d3e 0d00 353e f8b2 713d
00000180: a9c7 48be 53e6 13bd a914 d3bd 63b0 96bc
00000190: a7ec 463e 5bd5 d6bd db38 27be 75e1 413e
000001a0: d15f 3fbe 9c94 46be 1e37 27be b364 f7bd
000001b0: dd3e 5ebd a33b 3e3e 9a3e b5bc 90e9 053e
000001c0: d1d8 d3bd 21ea 39be 86e0 22be dba2 d9bc
000001d0: f650 953d a234 07bb e49f 43be d000 4dbc
000001e0: f4a6 39be aa9c 34be 10ad ebbc 902f 2e3c
000001f0: e627 023e c73f 48be eb44 4fbe 91a7 bebd
00000200: 7cc3 403e 93fd 4bbe 5c1f 133e 982c 193e
00000210: 7883 8cbc 8032 b0bb 3005 ed3c 3b74 cabd
00000220: e8e8 7b3d ac9b 073e f452 1ebe cf04 12be
00000230: 089b 63bd a9d8 c6bd 8f69 b2bd 486e fe3c
00000240: 1dab 0bbe 68ea a43d 20f2 2dbe 4053 77bc
00000250: e709 803d 58da b03d 151a 8ebd c3fb 3bbe
00000260: 53d5 7bbc da79 a8bd 883e f5bc 3427 d63d
00000270: 3cc0 f93d 27e4 bb3d 5ab4 9ebd d481 c43d
00000280: 2b45 4f3e 8a12 06be c96d 383e df78 c13d
00000290: 715d 1dbe 6a08 3ebe 3c31 e23d 70b7 4fbc
000002a0: 3035 c93d 3b90 37be 2b73 273d d041 493e
000002b0: ff86 193e a86c 9bbc 0966 00bc 4b05 08be
000002c0: 4444 363e 244c e13d 3ac5 01be 6bd5 fab9
000002d0: d8f7 da3d 4d44 7d3d f291 63bd c0a1 f9bc
000002e0: ab82 153e 9a77 06be 9686 37be 94e0 293e
000002f0: 2a16 1dbe 59ae 823d ff52 28be 1d0a f8bd
00000300: 80d2 173e e08c a53c 6706 f83d 2931 7b3d
00000310: 7acb 473e 65f9 133d 74ac bb3b 5487 c73c
00000320: 1b0d 253e 3a03 26be 24da 3bbe e890 adbd
00000330: f778 99bd 1869 15bd 215f 323e acba 2c3e
00000340: 1dc0 67bd b654 4e3d ef58 28be 4e35 383e
00000350: 637e b3bd 6304 2c3c a2db 15be 10c6 a5bd
00000360: 7847 25be 9cab e2bd 6028 31bd a4f5 373d
00000370: 35cb 16be 5b7a eabd 53c1 07be 0069 82bd
00000380: 54b0 18be a765 20be ac91 853d 64ef cc3d
00000390: 2957 bbbd a404 c43d e08a acbc 1674 3a3e
000003a0: b861 babc d4d2 933d ae18 363e 107f a43d
000003b0: 4865 ce3d 2777 c2bd 10a3 553c 38de 6f3d
000003c0: cc83 cebd dcc3 f43d 21cf 4c3d f3ca 233d
000003d0: dbb4 e73d 142a 363e f0d5 0f3e 2356 303d
000003e0: 4449 4d3e f867 f3bc 2f56 40be ba74 b4bd
000003f0: 03bb 42be 52a5 4fbe fde3 efbd b287 babd
0.11318904 -0.02400212 0.023093894 -0.14374433 0.19314414 -0.073564164 0.081095345 -0.18688798
-0.18619439 0.07397258 -0.17290075 0.03460306 -0.025448557 -0.13498963 0.018984456 0.077732265
-0.2026725 0.04152003 0.11715227 -0.102192774 0.10831239 0.023545695 0.14048609 -0.120322295
0.022923931 -0.13304093 -0.07704581 0.15881526 -0.091121174 -0.06804326 0.03627497 -0.19053316
-0.14557452 0.2004047 0.13257548 -0.18283692 -0.1672975 0.08370066 -0.1681511 0.11164349
-0.1899203 0.1728073 0.15615538 -0.019251928 -0.18359134 0.032047555 0.029444888 0.19492081
0.07106158 0.17052415 -0.06794442 0.06516194 0.06303564 -0.1738241 0.0809305 0.19699347
-0.018129677 -0.01745814 0.13539883 -0.023854151 -0.1632433 -0.16109759 -0.15890616 0.11380914
-0.09511985 -0.09810521 -0.19324596 0.16459307 -0.1941429 0.0348005 -0.035111606 -0.032344252
-0.1503259 -0.104460165 0.08755457 0.030127134 0.011272476 -0.026308164 0.028480733 -0.1559306
0.13565658 -0.0991542 0.143426 -0.2027873 -0.085881256 0.08058789 -0.1558321 -0.18678883
0.121347666 -0.03559879 0.015732916 -0.05622057 0.0021680293 0.20071574 0.176758 0.05900857
-0.19607414 -0.036108326 -0.10306675 -0.018394655 0.19426213 -0.10489913 -0.16330282 0.18933661
-0.18688895 -0.19392627 -0.1632962 -0.12079754 -0.05425917 0.18577437 -0.022124577 0.13077378
-0.10344089 -0.1815572 -0.15905961 -0.026566913 0.07290833 -0.0020630737 -0.19103962 -0.012512401
-0.18130094 -0.17637888 -0.028769046 0.010631457 0.12710533 -0.19555579 -0.20241134 -0.093093045
0.18824571 -0.1992095 0.14367431 0.14958417 -0.017152533 -0.005377114 0.028933138 -0.098854505
0.061501414 0.13242978 -0.15461332 -0.14259647 -0.05556777 -0.097092934 -0.0871154 0.031058446
-0.13639493 0.08052522 -0.16986895 -0.015095532 0.06251889 0.08635396 -0.069385685 -0.18357758
-0.015370685 -0.08226366 -0.029937044 0.10456696 0.12194869 0.09174376 -0.07749243 0.09595075
0.20241229 -0.1309301 0.1801063 0.094468825 -0.15367676 -0.18557897 0.11044547 -0.012678012
0.09824598 -0.17926113 0.040881317 0.19654012 0.14992903 -0.01897271 -0.007836827 -0.13283269
0.17799479 0.11000851 -0.12672892 -0.00047842725 0.10691804 0.061832715 -0.055559106 -0.030472636
0.14600627 -0.13131562 -0.17922434 0.16589576 -0.15340486 0.063809104 -0.1643791 -0.12111304
0.14826393 0.020208776 0.12110596 0.06132618 0.19511214 0.036126513 0.005727345 0.024356522
0.1611828 -0.16212168 -0.18344933 -0.08474904 -0.07493775 -0.03647718 0.17419101 0.16868085
-0.056579698 0.050373755 -0.16440175 0.17989084 -0.08764341 0.010499093 -0.14634565 -0.08094418
-0.16140544 -0.11067888 -0.043251395 0.044911996 -0.14725955 -0.11449119 -0.13257341 -0.063676834
-0.14911014 -0.15663777 0.06521925 0.10006598 -0.09147484 0.09571198 -0.021062315 0.18208346
-0.022751674 0.07217947 0.17782852 0.08032048 0.100779116 -0.09495383 0.013039365 0.058561534
-0.10083732 0.1195142 0.05000222 0.03998847 0.11313792 0.17789489 0.14046454 0.043050896
0.2004748 -0.029712662 -0.18782876 -0.08811326 -0.19016652 -0.20277908 -0.11713407 -0.09107913

2.bias f4 [24]
00000000: f57d bfbd 60a6 893b d17f c6bd dc29 40bc
00000010: 8ba4 0f3e f0ee e5bc 4806 4f3d 352f b8bc
00000020: 5317 ee3d 77f1 b7bd ef2f ddbd 3c3b b7bd
00000030: 12d2 353e 8177 c1bd 6222 92bd 715d c2bd
00000040: d78d fdbb 84d9 ad3d bef4 123e 12b6 753d
00000050: b15e 47be 4a54 2ebe 60e4 2abe 9562 03be
-0.09350196 0.0042007416 -0.09692348 -0.01172873 0.14027612 -0.028068036 0.0505431 -0.022483448
0.116255425 -0.08981603 -0.10800158 -0.08946845 0.17755917 -0.09446622 -0.07135464 -0.09490479
-0.007737856 0.084887534 0.14351174 0.05998809 -0.19469716 -0.17024341 -0.1668868 -0.12830575

4.weight f4 [2, 24]
00000000: 16f9 c4bd 113b 35be 4aed 373e acca 373d
00000010: 50cb 16bd 001c 7dbb 247d 903d 9964 e9bd
00000020: 078e 85bd 30cd 0c3c ff9e 75bd dc0c ae3d
00000030: aa29 8c3b d967 223e 68bd e7bb d35e eabc
00000040: d1d3 87bb 68f1 243e ca89 893d 9a2a 07be
00000050: 3c29 15be a83b b03d e84d ed3d f83e 173e
00000060: fec3 aebd 108f 19bc d06b 14be 6435 883b
00000070: d7b0 3dbe 82a9 1f3e d7ca 8bbd 4eac 0a3e
00000080: 6cee bdbc e01c da3d 0952 6bbc 8d91 c9bd
00000090: 9f82 34be fcea 7ebd 8233 88bb 0993 f53a
000000a0: 80dd 63bd eac9 d7bd c234 d93d 5935 3abe
000000b0: f1e6 273e a307 04be 9a6b 3a3e a0cc c13c
-0.09617822 -0.17698313 0.17961612 0.044871017 -0.036814988 -0.0038621426 0.07055119 -0.113961406
-0.0652123 0.008593842 -0.059966084 0.084985465 0.0042774277 0.15859927 -0.0070721395 -0.028609669
-0.0041451235 0.16107714 0.06715734 -0.13199845 -0.14566511 0.086051285 0.11587125 0.14770114
-0.08533476 -0.009372488 -0.14494252 0.0041567553 -0.1852449 0.15592006 -0.06825798 0.13542292
-0.023184977 0.10650039 -0.01436282 -0.09842215 -0.17627953 -0.062235817 -0.004156531 0.0018735836
-0.05563116 -0.10536559 0.10605766 -0.18184413 0.16396691 -0.12893538 0.18205109 0.023657143

4.bias f4 [2]
00000000: a076 163e 3b71 1e3e
0.1469369 0.15472881
