qlearning_agent_policy_20250604_180947.pth (torch, 3016 bytes, 4 tensors)

0.weight f4 [24, 4]
00000000: f4a7 31c0 9927 3ec0 8e70 3240 8cc3 2c40
00000010: 0b93 05c0 79c3 14c0 0983 fd3f fdee 0840
00000020: 1258 32c0 f3ed 24c0 6b12 3f40 02e6 4340
00000030: 2558 1bc0 d273 2cc0 5fd2 0f40 f5f0 2440
00000040: b2ad 0ec0 bb73 8cbf 9930 0d40 e2ec 853f
00000050: 566b 15c0 0a4f 21c0 39a6 4340 ffea 2940
00000060: 2799 29c0 13fc 3dc0 e19b 2a40 f6d7 1940
00000070: f8ee 613e 9022 70bd 9862 02be 3306 c13c
00000080: 76cd 31c0 b6b8 24c0 a39e 1a40 b990 4240
00000090: e8d6 103e d9cc 33be 5acb e53e 5420 f1bd
000000a0: eefa 393d 7e52 913d e572 d73e 1592 c53d
000000b0: 4dcc 60be 8c10 cc3d 7de6 193e 945f ffbc
000000c0: c546 29c0 5d2a 3bc0 168e 0d40 3760 3240
000000d0: b749 2ec0 2eeb 36c0 59a9 fd3f 0551 1240
000000e0: eeab 35c0 1a7d 3bc0 d3a4 2a40 b051 3c40
000000f0: 972d 11c0 53e3 1dc0 282d 2040 a309 3340
00000100: 9acf 23c0 b5bb 39c0 4b81 2f40 772d 2d40
00000110: d248 25c0 d4aa 1ec0 8fdd 0c40 6f22 3140
00000120: 6c19 b8bf eb8d 9cbf 2ea4 d23f 93cc d23f
00000130: bc96 75bf 2203 74bf 7693 973f af11 053f
00000140: c705 10c0 de7d eebf df92 c33f c887 a03f
00000150: 7403 41c0 d434 3ac0 cb46 3340 01c6 2540
00000160: cc75 25c0 0b12 23c0 2e55 1240 612d 3c40
00000170: 8eae c8bf 28fd 5dbf e5b4 a53f 3fbc ae3f
-2.775876 -2.9711668 2.7881198 2.6994352 -2.0870998 -2.3244307 1.9805614 2.1395867
-2.7866254 -2.5770233 2.9854991 3.0609136 -2.427255 -2.694569 2.247215 2.5772069
-2.2293515 -1.0972818 2.2060912 1.0462916 -2.3346763 -2.5204492 3.0570204 2.654968
-2.6499727 -2.9685104 2.665764 2.4038062 0.22063816 -0.05862671 -0.12732923 0.023562526
-2.7781653 -2.5737739 2.4159324 3.0400832 0.1414448 -0.17558612 0.44881707 -0.11773744
0.04540532 0.07095812 0.42079845 0.096470036 -0.21952935 0.099640936 0.1502933 -0.031173505
-2.6449444 -2.9244606 2.2117972 2.7871225 -2.7232492 -2.8581042 1.9817306 2.286195
-2.8386188 -2.9295106 2.66631 2.9424858 -2.2684076 -2.4669998 2.502756 2.7974632
-2.559546 -2.9020817 2.7422664 2.7059 -2.5825696 -2.4791765 2.2010229 2.7677267
-1.4382758 -1.223081 1.6456354 1.6468681 -0.9593313 -0.9531728 1.1841877 0.5198011
-2.2503526 -1.8632162 1.5279197 1.2541437 -3.0158358 -2.9094744 2.8011959 2.5902102
-2.5853148 -2.5479763 2.286449 2.9402697 -1.567827 -0.8671441 1.294583 1.3651198

0.bias f4 [24]
00000000: e238 3c40 261f 0340 0fb1 3c40 4c4f 4040
00000010: eb0b 3840 d751 3c40 048e 2640 a9c6 16be
00000020: 67f9 3e40 442f 9ebe fdb2 99be b9a3 4bbe
00000030: 2f9e 1a40 eed5 0d40 389f 1740 9ebc 2940
00000040: f6f9 2040 a807 f93f eb04 2c40 6b08 1140
00000050: 0c81 2740 3386 2e40 4725 1a40 039c 2040
2.9409719 2.0487761 2.9483068 3.00484 2.8757274 2.942495 2.602418 -0.1472422
2.9839723 -0.30895436 -0.3001937 -0.19886674 2.4159048 2.2161822 2.369093 2.6521373
2.5152564 1.9455462 2.6878002 2.2661388 2.6172514 2.7269409 2.4085252 2.5095222

2.weight f4 [2, 24]
00000000: 34ac 2440 a36b 1040 3da2 2840 2c52 2840
00000010: eba5 2440 5adf 2e40 5334 2340 40c3 aabd
00000020: aa38 2540 74de 19be 7bba eebd a35b 13be
00000030: b542 3240 c209 2840 330c 2d40 01da 2340
00000040: 9476 1e40 a9b8 2140 c375 2640 5ae4 2340
00000050: 0076 3640 2dea 2d40 23d2 2440 3c7e 3c40
00000060: 6875 0b40 03ad e83f 4913 0c40 30fa 0c40
00000070: 1c5d ee3f 81a1 0d40 fc0a 0140 4fb1 b53c
00000080: f483 0b40 5571 1fbd 6321 fa3c 35fa f1bd
00000090: 47c1 1140 554a 0540 7c75 1740 4991 0640
000000a0: a225 0740 3be9 0a40 586d 1440 52f4 b03f
000000b0: 37c8 0e40 343d 1340 2913 2240 897f 0b40
2.5730104 2.2565696 2.6349022 2.6300154 2.5726268 2.7323823 2.5500686 -0.08338022
2.5815835 -0.15026265 -0.11656662 -0.14390425 2.7853215 2.6255956 2.7038696 2.560181
2.4759874 2.5268958 2.6009376 2.5608125 2.8509521 2.717418 2.5753257 2.9452047
2.179041 1.8177799 2.188677 2.2027702 1.8622165 2.2129824 2.0162954 0.022179274
2.1799288 -0.03892644 0.030533498 -0.11815301 2.2774217 2.0826619 2.3665457 2.1026175
2.111672 2.1704853 2.3191738 1.3824561 2.2309701 2.3006105 2.5324194 2.1796591

2.bias f4 [2]
00000000: b910 0b40 c04e 8e3f
2.1728957 1.1117783
